model_sleep_3gru_speed.onnx (onnx, 99266 bytes, 23 tensors)

StatefulPartitionedCall/model/time_distributed_3/dense_3/MatMul/ReadVariableOp:0 f4 [16, 1]
-0.86145294 -0.24386019 0.46082816 0.72756565 0.50351644 0.583639 0.40161487 0.52830195
0.6655905 -1.2476943 0.24246038 0.29630554 -0.12633377 -0.3026506 0.3169553 -0.4736427
00000000: 2e88 5cbf 7cb6 79be abf1 eb3e be41 3a3f
00000010: 74e6 003f 5e69 153f 77a0 cd3e cc3e 073f
00000020: 2464 2a3f 72b4 9fbf 8947 783e 5cb5 973e
00000030: a45d 01be 05f5 9abe f747 a23e 4c81 f2be

StatefulPartitionedCall/model/time_distributed_2/dense_2/MatMul/ReadVariableOp:0 f4 [16, 16]
-0.1533102 -0.21137203 0.45464024 0.29276028 -0.7610767 -0.24478392 0.39734566 0.19901393
0.18128775 0.4125693 0.13958594 -0.332868 -0.37003297 -0.17813064 -0.15525185 -0.29575998
0.08164935 0.0067054876 0.2828879 0.15723744 0.7197662 -0.07907898 -0.015988333 0.14000635
0.10934603 0.46929792 0.023202397 -0.21736997 0.19272318 0.21341121 0.123748936 0.26910266
0.075087056 0.18559688 0.2713699 -0.19234222 0.2888313 -0.14192964 0.34370512 -0.20396607
0.075676695 0.49432307 0.22650717 0.09303812 -0.275476 0.23348859 -0.2901124 0.25315824
-0.016409341 0.38816062 -0.010310108 -0.7811213 -0.38916573 0.3294368 -0.8092887 -1.0610013
-0.023825034 -0.10631019 0.178678 0.08900281 0.55792576 0.5419084 0.19296601 -0.18978697
-0.6323811 -0.18189408 0.014999877 0.40266284 0.15428779 -0.093616724 0.12544774 -0.080789246
0.3166728 -0.20143464 -0.10227701 0.29159892 0.10574011 0.4208983 0.026483733 -0.12562689
-0.8307568 0.48424265 0.117998905 -0.12691487 -0.26011923 -0.08510787 0.018058704 -0.044413466
0.14542626 0.5477123 -0.13639016 0.12472709 -0.034732826 -0.22662206 0.19551148 0.07754116
0.08620823 0.02241046 0.08763512 -1.16044 -0.2892738 0.33677852 -0.57448465 0.039767098
0.17780492 -0.21794917 0.2130411 -0.21073762 0.461512 0.2292623 -0.4348765 0.21467946
0.24847732 -0.29416478 0.35560104 0.45001903 -0.3506708 -0.06106996 0.3513101 0.2064347
-0.020332623 -0.0080689695 -0.36340013 -0.40515375 -0.0016792067 -0.42096636 0.21677034 0.110568345
0.065344244 -0.14069034 -0.1429137 0.09713947 0.26867583 -0.21427554 0.17397375 0.25551262
-0.31512597 -0.36706594 0.27473295 0.34540647 0.15664014 -0.047373697 0.444812 0.05866543
-0.046682388 0.17699036 0.3582734 -0.18651663 -0.62015927 0.18347263 0.3480596 0.37634423
0.5984739 -0.22060686 -0.48919228 -0.07298266 -0.07946951 0.34731615 0.003685519 -0.90620476
-0.3408495 0.62225336 -0.44053692 0.10632195 -0.35442507 0.16649495 0.11676691 -0.07405019
-0.76134086 -0.3353441 0.34885108 0.4132992 0.03885604 -0.17107598 0.22524786 -0.19585536
-0.37756333 -0.074086025 0.17674884 -0.09681462 -0.43036464 -0.29352286 0.06024224 0.105883785
-0.46420914 0.15979889 -0.4747907 0.12189484 0.011645228 -0.18369621 -0.23377714 0.3372167
-0.10703825 0.15859409 0.44317847 0.12035565 -0.14433543 -0.02655231 0.08544643 0.094321735
-0.32767335 -0.3186349 -0.053992428 -0.28395358 0.026696969 0.20341206 0.25485176 -0.12687467
0.12130132 -0.18099895 0.4911401 -0.36172467 0.1386259 0.09303501 0.32346117 -0.21729197
0.5104162 0.041431297 -0.25589094 -0.45877427 0.26225886 -0.2667185 -0.1187411 -0.08764123
0.12798728 -0.11998904 0.30972034 -0.27762684 0.14571677 0.26737046 -0.1665087 0.3695246
-0.042348564 0.5123424 -0.50738347 0.07749836 0.0005912232 -0.4284588 0.35928318 -0.14470144
-0.2974429 0.22292806 -0.29179317 -0.08987258 0.5763246 -0.22553907 -0.077634215 0.07668029
-0.14023179 0.45957077 0.4885297 0.36548918 0.29363847 -0.3740058 0.15915485 0.05029816
00000000: 59fd 1cbe e971 58be 9bc6 e83e ade4 953e
00000010: ecd5 42bf a3a8 7abe e470 cb3e 4fca 4b3e
00000020: 7fa3 393e 493c d33e 9eef 0e3e ad6d aabe
00000030: f674 bdbe e167 36be 57fa 1ebe da6d 97be
00000040: c637 a73d b5b9 db3b afd6 903e da02 213e
00000050: 9942 383f 29f4 a1bd f7f9 82bc d35d 0f3e
00000060: d0f0 df3d d147 f03e f412 be3c 3c96 5ebe
00000070: 3a59 453e 7888 5a3e 1570 fd3d d3c7 893e
00000080: 3ec7 993d 1c0d 3e3e fff0 8a3e 5cf5 44be
00000090: b2e1 933e 0156 11be 1efa af3e 7bdc 50be
000000a0: 62fc 9a3d ea17 fd3e 7ff1 673e c58a be3d
000000b0: 310b 8dbe a217 6f3e 9d89 94be f59d 813e
000000c0: e26c 86bc fdbc c63e baeb 28bc 91f7 47bf
000000d0: bb40 c7be f1ab a83e 8b2d 4fbf e4ce 87bf
000000e0: b82c c3bc 28b9 d9bd 5ef7 363e 1b47 b63d
000000f0: 39d4 0e3f 82ba 0a3f e298 453e 8457 42be
00000100: bae3 21bf 7142 3abe 0bc2 753c d329 ce3e
00000110: 9efd 1d3e 20ba bfbd 5f75 003e d574 a5bd
00000120: f022 a23e e244 4ebe 9c76 d1bd 744c 953e
00000130: 458e d83d fb7f d73e 6af4 d83c 56a4 00be
00000140: 7aac 54bf a7ee f73e 69a9 f13d f9f5 01be
00000150: 592e 85be 094d aebd d9ef 933c e5ea 35bd
00000160: 9fea 143e e036 0c3f dda9 0bbe eb70 ff3d
00000170: 0244 0ebd 9d0f 68be 2934 483e e6cd 9e3d
00000180: f18d b03d 2496 b73c 0b7a b33d 4c89 94bf
00000190: b21b 94be 3c6e ac3e 6d11 13bf d3e2 223d
000001a0: 7e12 363e 112e 5fbe 7227 5a3e 9acb 57be
000001b0: 4d4b ec3e bdc3 6a3e 22a8 debe efd4 5b3e
000001c0: d770 7e3e c49c 96be 5711 b63e e568 e63e
000001d0: 208b b3be 7f24 7abd ebde b33e 9e63 533e
000001e0: 9a90 a6bc b633 04bc 950f babe 5070 cfbe
000001f0: d418 dcba e788 d7be 0bf9 5d3e a871 e23d
00000200: 34d3 853d 2111 10be f857 12be 0ff1 c63d
00000210: e18f 893e 0c6b 5bbe 2d26 323e 8dd2 823e
00000220: 3158 a1be 11f0 bbbe cca9 8c3e 1ed9 b03e
00000230: 4666 203e ec0a 42bd 66be e33e 294b 703d
00000240: 0836 3fbd f63c 353e 9c6f b73e 37fe 3ebe
00000250: c2c2 1ebf 40e0 3b3e de34 b23e 31b0 c03e
00000260: 9635 193f c4e6 61be 6977 fabe ef77 95bd
00000270: e9c0 a2bd 6cd3 b13e c088 713b 09fd 67bf
00000280: d383 aebe ff4b 1f3f 0e8e e1be 53bf d93d
00000290: 3477 b5be a77d 2a3e 7d23 ef3d a0a7 97bd
000002a0: 3ce7 42bf 39b2 abbe 9c9c b23e f49b d33e
000002b0: 8327 1f3d 8b2e 2fbe 60a7 663e 4f8e 48be
000002c0: fb4f c1be 6aba 97bd a6fd 343e be46 c6bd
000002d0: c158 dcbe a148 96be 91c0 763d 99d9 d83d
000002e0: d2ac edbe 52a2 233e c417 f3be 00a4 f93d
000002f0: a0cb 3e3c dc1a 3cbe 4663 6fbe aba7 ac3e
00000300: df36 dbbd 7d66 223e 4ae8 e23e 067d f63d
00000310: abcc 13be 3b84 d9bc 8afe ae3d c12b c13d
00000320: cdc4 a7be 1d24 a3be 2a27 5dbd 5d62 91be
00000330: 9ab3 da3c 404b 503e ee7b 823e 6feb 01be
00000340: d46c f83d ca57 39be b776 fb3e fa33 b9be
00000350: f3f3 0d3e 2489 be3d b49c a53e c981 5ebe
00000360: a3aa 023f ddb3 293d 2304 83be 76e4 eabe
00000370: cb46 863e 548f 88be 892e f3bd 3f7d b3bd
00000380: 190f 033e d0bc f5bd aa93 9e3e 1b25 8ebe
00000390: c736 153e c8e4 883e 4281 2abe 5432 bd3e
000003a0: b075 2dbd df28 033f e2e3 01bf 76b7 9e3d
000003b0: 51fc 1a3a f45e dbbe f7f3 b73e 9d2c 14be
000003c0: 704a 98be 4147 643e ea65 95be 1d0f b8bd
000003d0: 028a 133f b7f3 66be b0fe 9ebd 8e0a 9d3d
000003e0: ec98 0fbe dc4c eb3e 9120 fa3e 6621 bb3e
000003f0: c857 963e b07d bfbe 7df9 223e 7205 4e3d

StatefulPartitionedCall/model/time_distributed_2/dense_2/BiasAdd/ReadVariableOp:0 f4 [16]
0.060241267 -0.0031219486 0.047606003 0.07124471 0.04166398 0.15041016 -0.044756796 -0.026597386
0.06560336 -0.22402722 0.14188415 0.11974265 -0.0020558909 0.086667284 0.034515165 -0.07908391
00000000: 8cbf 763d 9b99 4cbb 83fe 423d bfe8 913d
00000010: d9a7 2a3d 1f05 1a3e e752 37bd c3e2 d9bc
00000020: 0e5b 863d 6467 65be 144a 113e a23b f53d
00000030: 20bc 06bb 9e7e b13d c65f 0d3d bff6 a1bd

StatefulPartitionedCall/model/time_distributed_1/dense_1/MatMul/ReadVariableOp:0 f4 [16, 16]
0.29073524 -0.16473453 0.08294903 0.36982355 0.19436482 -0.01907669 -0.27279353 -0.0074256756
0.42360964 0.19882317 -0.2849579 0.055855885 0.30173057 0.25550038 -0.054744888 -0.15826076
-0.13545388 -0.43655977 -0.33528185 -0.01788285 0.32055604 0.41843137 0.31539765 -0.15154454
-0.2668896 -0.32073635 0.1821544 0.02762873 0.4427384 -0.116549484 -0.025264908 0.31505454
0.4105526 0.21765998 0.049830474 0.14433031 0.19346829 0.29228482 -0.23669991 0.46607968
0.35221314 0.17816849 0.26868373 -0.21349448 0.15427709 -0.059241425 0.3045694 0.12009013
-0.48839763 0.010792783 0.31429714 0.0111192735 0.1402211 -0.008490866 0.22771373 -0.40605348
-0.29329863 -0.19817688 0.2852128 -0.030848376 -0.4299201 -0.16533777 0.24396883 0.08493436
0.1422838 -0.13640165 0.30236742 0.51346785 -0.074782275 0.4424215 -0.20951036 0.10702795
0.41461256 0.31037235 -0.042276192 -0.29122853 0.47022232 0.25108692 0.21624117 -0.2964228
-0.038083803 -0.4845175 -0.0266595 -0.07612859 -0.27137887 -0.23961021 0.01164231 -0.13309771
0.291892 0.4275916 0.34494922 0.14752898 0.15562953 0.11426794 0.17131987 -0.28852943
-0.15925427 -0.23158202 -0.13181536 -0.42780864 -0.29746038 -0.115247 0.37409064 0.3082379
0.2766368 -0.07665089 -0.109423056 -0.11599398 -0.07134132 0.44043168 0.57712996 -0.21435687
-0.072422475 -0.32078788 0.23304524 0.7744494 0.2238184 0.5084761 -0.624396 -0.14076468
0.08899985 -0.22460778 -0.4449279 -0.18722412 -0.28857383 0.25624508 0.47319624 0.09837366
-0.13076104 0.102987446 0.25018388 -0.11879667 0.30724967 0.7635498 0.10068073 -0.1965387
-0.42758065 0.24552688 -0.49939463 -0.0490251 -0.013915511 0.3226253 -0.035538793 0.49590164
-0.14242513 -0.44409943 0.2283833 -0.018515404 -0.056564532 -0.7642711 -0.017751649 0.19479918
0.36226884 -0.41929293 0.41225213 0.18353416 -0.035966907 -0.22978756 -0.5495574 -0.6011089
0.1991661 -0.24805497 0.2893509 -0.20369732 -0.05630321 0.56496114 -0.07911026 0.41570157
-0.20852844 0.123571984 -0.14291698 -0.2021769 -0.5951937 0.66673756 0.5132925 0.27188408
0.29431885 0.26126924 0.13779633 -0.70413893 0.30455053 0.39604494 0.38035935 0.66347075
0.08425085 -0.23232533 -0.32918957 -0.045033198 -0.29938322 -0.36745846 0.2038953 0.057406303
-0.2578654 -0.26318872 0.39136562 0.39067566 -0.24085015 -0.2446116 0.19332129 -0.06466805
-0.34812468 0.08150622 0.4789165 -0.18345527 -0.2796939 0.16224045 0.3043882 0.0074496954
0.16497007 -0.17340206 0.4252774 0.45746416 0.039429028 -0.61479646 -0.47842106 -0.031607818
0.19964668 -0.5171168 -0.14627667 0.36510184 0.35672486 -0.3086576 -0.5825642 -0.5541335
-0.16044648 0.20108347 0.24991405 -0.5608683 -0.33517885 -0.28241423 0.5640955 -0.011742689
-0.12715065 -0.038122825 0.38584912 -0.02506752 -0.30606753 -0.2643544 0.20576566 -0.005230149
-0.11581393 -0.5309568 0.19736513 -0.015216441 0.10744459 0.23832203 -0.10976758 -0.37132975
-0.37531576 -0.20973182 -0.48790622 0.10802186 -0.04933374 -0.16237429 -0.081235565 0.24293862
00000000: 40db 943e 2bb0 28be 2ee1 a93d 8359 bd3e
00000010: 9207 473e b846 9cbc 98ab 8bbe 1553 f3bb
00000020: 5de3 d83e 4d98 4b3e 00e6 91be 24c9 643d
00000030: 6e7c 9a3e f2d0 823e 2d3c 60bd 1c0f 22be
00000040: 6cb4 0abe c384 dfbe 10aa abbe 0e7f 92bc
00000050: ec1f a43e a33c d63e cd7b a13e 7e2e 1bbe
00000060: c1a5 88be 8e37 a4be af86 3a3e a555 e23c
00000070: 9cae e23e 7fb1 eebd 5af8 cebc d44e a13e
00000080: f333 d23e 42e2 5e3e 0a1b 4c3d 53cb 133e
00000090: 8d1c 463e 5ba6 953e 7661 72be ffa1 ee3e
000000a0: 4855 b43e cd71 363e ea90 893e 4c9e 5abe
000000b0: d0fa 1d3e 23a7 72bd 85f0 9b3e d0f1 f53d
000000c0: 410f fabe 37d4 303c 8eeb a03e 9d2d 363c
000000d0: 1f96 0f3e 461d 0bbc ca2d 693e 3ee6 cfbe
000000e0: 3d2b 96be e1ee 4abe 6a07 923e bcb5 fcbc
000000f0: 7d1e dcbe 4e4e 29be f7d2 793e 11f2 ad3d
00000100: d8b2 113e e0ac 0bbe e7cf 9a3e a172 033f
00000110: 7327 99bd 1285 e23e e289 56be 7831 db3d
00000120: 1948 d43e 20e9 9e3e cd29 2dbd e81b 95be
00000130: fbc0 f03e 778e 803e 536e 5d3e bbc4 97be
00000140: c3fd 1bbd ae12 f8be 0665 dabc 4ee9 9bbd
00000150: 2cf2 8abe 615c 75be 63bf 3e3c c44a 08be
00000160: de72 953e 49ed da3e 2f9d b03e d611 173e
00000170: 595d 1f3e 4f05 ea3d 7a6e 2f3e 21ba 93be
00000180: 8d13 23be d623 6dbe 9bfa 06be bc09 dbbe
00000190: ba4c 98be 9e06 ecbd cf88 bf3e 5cd1 9d3e
000001a0: 57a3 8d3e 24fb 9cbd 3219 e0bd 408e edbd
000001b0: 661b 92bd 4380 e13e cabe 133f 5e80 5bbe
000001c0: 3c52 94bd 4f3e a4be 69a3 6e3e 5142 463f
000001d0: a730 653e 7d2b 023f 6bd8 1fbf 9e24 10be
000001e0: 8e45 b63d 95ff 65be 97cd e3be aeb7 3fbe
000001f0: f3bf 93be 8e32 833e c746 f23e 2178 c93d
00000200: 39e6 05be 15eb d23d 1a18 803e ab4b f3bd
00000210: d44f 9d3e 0078 433f b331 ce3d 7141 49be
00000220: daeb dabe 666b 7b3e a7b0 ffbe 8bce 48bd
00000230: e2fd 63bc 252f a53e 2091 11bd d2e6 fd3e
00000240: e5d7 11be 0061 e3be 50dd 693e 9ead 97bc
00000250: 36b0 67bd 45a7 43bf e86b 91bc 7079 473e
00000260: 4d7b b93e 90ad d6be b612 d33e 61f0 3b3e
00000270: 0952 13bd 6e4d 6bbe cbaf 0cbf 46e2 19bf
00000280: 33f2 4b3e 1f02 7ebe cd25 943e 0896 50be
00000290: 329e 66bd 4ba1 103f 8f04 a2bd d6d6 d43e
000002a0: 7b88 55be 4f13 fd3d d458 12be 7607 4fbe
000002b0: 9d5e 18bf 50af 2a3f 2367 033f 6434 8b3e
000002c0: f6b0 963e 15c5 853e 7b1a 0d3e 7342 34bf
000002d0: 0cee 9b3e 67c6 ca3e 76be c23e 38d9 293f
000002e0: b68b ac3d b1e6 6dbe 898b a8be bb74 38bd
000002f0: c248 99be 8423 bcbe eec9 503e df22 6b3d
00000300: ef06 84be acc0 86be 1361 c83e a406 c83e
00000310: 6ca1 76be 777b 7abe 04f6 453e af70 84bd
00000320: 663d b2be bcec a63d 8b34 f53e b3db 3bbe
00000330: 0a34 8fbe 5c22 263e c5d8 9b3e 931c f43b
00000340: eaed 283e 4f90 31be f6bd d93e be38 ea3e
00000350: 5580 213d 4d63 1dbf 9bf3 f4be 3377 01bd
00000360: 2e70 4c3e c461 04bf 8dc9 15be a1ee ba3e
00000370: a4a4 b63e 5e08 9ebe ed22 15bf b1db 0dbf
00000380: 154c 24be d3e8 4d3e 78e9 7f3e 1195 0fbf
00000390: 909c abbe 9998 90be 9068 103f 6864 40bc
000003a0: c833 02be ae26 1cbd 048e c53e 665a cdbc
000003b0: e2b4 9cbe 7659 87be 3cb4 523e ab61 abbb
000003c0: db2f edbd c9ec 07bf 161a 4a3e 614e 79bc
000003d0: e90b dc3d b10a 743e d3cd e0bd ef1e bebe
000003e0: 6329 c0be f0c3 56be d8ce f9be 913a dd3d
000003f0: 2d12 4abd 7245 26be d55e a6bd e7c4 783e

StatefulPartitionedCall/model/time_distributed_1/dense_1/BiasAdd/ReadVariableOp:0 f4 [16]
0.07618637 -0.06769592 0.041853998 0.1582871 -0.031123934 -0.11424606 0.037994146 -0.023968248
-0.03497977 -0.08190544 0.022845063 0.016262405 0.08072058 0.014785148 -0.011065313 -0.0473019
00000000: 9907 9c3d 29a4 8abd 196f 2b3d 0316 223e
00000010: 9ff7 febc d7f9 e9bd c09f 1b3d 0f59 c4bc
00000020: f346 0fbd 0abe a7bd 9225 bb3c bc38 853c
00000030: d550 a53d 683d 723c 494b 35bc a3bf 41bd

StatefulPartitionedCall/model/time_distributed/dense/MatMul/ReadVariableOp:0 f4 [64, 16]
-0.27625316 0.13400404 -0.0543148 0.27759328 0.2665376 0.13540117 -0.12630193 -0.039201587
0.08518158 0.11288811 0.14238515 -0.0076371953 -0.01527839 0.21234055 0.009463897 0.009107425
-0.102536105 -0.1282851 -0.25004503 -0.097309716 0.0118807955 0.32400948 -0.22794938 -0.112291135
0.23461564 0.02969797 -0.06914829 -0.20052019 0.17209116 0.099615455 0.0610809 -0.12158904
-0.024253612 0.17045549 -0.023635635 -0.14261492 0.3217118 -0.26254892 0.1669578 -0.095682085
-0.1604228 0.11827228 0.21104622 0.12654915 0.3317901 0.080415435 0.046109986 0.13836196
-0.003370578 0.09945469 -0.1184642 -0.20574833 0.30851743 -0.13699198 0.12648973 -0.25332743
-0.06133338 0.040455014 0.18879123 0.19099942 0.071982235 0.010497618 -0.102066055 -0.34197116
0.1947175 -0.18309942 -0.16124515 -0.2734089 0.20704582 0.31130168 0.15107748 -0.16983466
0.088708386 -0.14938807 -0.23992008 -0.3003475 -0.1672611 -0.22115958 0.14778773 -0.04596564
-0.009005293 -0.20485197 -0.29418895 0.30434173 -0.34911183 -0.19037306 -0.18642032 0.025352748
0.00229313 -0.039330367 0.10860525 0.1292391 0.09579884 0.17519347 -0.0943282 0.37834635
0.11928152 -0.26199114 0.21086982 -0.0052498444 0.23564987 0.58737326 0.23046005 0.12195657
0.2355678 -0.3162634 0.11675379 0.1429019 0.30588406 -0.36252174 -0.09449873 -0.05622162
-0.3767718 0.04294675 -0.100833856 0.06847697 -0.16022792 0.1882883 -0.03986504 0.04602149
0.10331457 0.226944 -0.05376787 -0.14447832 -0.21454997 -0.10515758 0.04687031 0.08596142
-0.5077036 0.30769235 -0.17924911 0.3970535 -0.11643133 -0.060463645 0.11012094 0.2283143
0.18459342 0.029796887 -0.19500938 -0.055499323 -0.11977229 -0.064888895 0.36799476 0.18380827
0.05098716 -0.093728036 -0.08541182 0.30243093 -0.35293722 -0.021868553 0.013181019 0.058902938
0.3267845 0.100304164 0.19182052 -0.11331773 -0.03296177 -0.27445498 0.28684086 0.27887332
0.17607205 -0.048837885 0.27380842 0.0043662675 -0.102102734 0.18370204 0.1222813 -0.055901855
0.10884855 -0.31174856 0.3019132 0.25207844 0.3536471 -0.28059503 -0.27667898 -0.025621794
0.1926457 0.17076029 -0.32593653 0.18389043 0.0011933477 -0.13399431 0.18601422 -0.062013425
-0.01685958 -0.032191046 0.20742157 -0.31650862 -0.20683046 -0.13338448 0.18111444 0.13122039
0.116865195 0.00010062337 0.30186856 -0.26850456 -0.0561157 -0.004416244 -0.20278774 -0.15119831
-0.15174657 0.10937821 -0.17770435 -0.19970225 0.17089762 0.18418214 -0.1346335 -0.24808262
-0.14204432 -0.15070216 0.23234427 -0.19019882 -0.07690448 -0.16892396 0.30820465 -0.2161776
0.33217135 -0.29052576 -0.020717416 -0.08171009 -0.20375293 -0.3109484 0.14983073 -0.16382092
-0.1710621 0.059651423 -0.04915898 0.14038256 -0.18674266 -0.23872375 -0.23717126 -0.1840156
-0.07254578 -0.09270625 -0.035999116 0.0023668143 -0.11630841 -0.14370485 0.06294032 -0.18779661
-0.12327385 -0.0349115 -0.045725524 0.07461933 -0.033914555 -0.11900101 -0.068733335 -0.005701282
0.049487423 -0.103096165 -0.22738643 -0.093569055 -0.18406624 0.049371544 -0.043540467 0.08123558
00000000: 0e71 8dbe 5b38 093e 3279 5ebd b520 8e3e
00000010: 9e77 883e 9ba6 0a3e 4b55 01be d891 20bd
00000020: ae73 ae3d e231 e73d 6acd 113e 7041 fabb
00000030: 3652 7abc cd6f 593e 760e 1b3c 4f37 153c
00000040: 73fe d1bd 2b5d 03be e705 80be 514a c7bd
00000050: aba7 423c 92e4 a53e 906b 69be e5f8 e5bd
00000060: 153f 703e 2849 f33c 9e9d 8dbd 2a55 4dbe
00000070: aa38 303e 3003 cc3d f72f 7a3d ad03 f9bd
00000080: 83af c6bc e28b 2e3e 859f c1bc a509 12be
00000090: 69b7 a43e d06c 86be fcf6 2a3e f8f4 c3bd
000000a0: e045 24be bd38 f23d 801c 583e 1a96 013e
000000b0: 64e0 a93e d9b0 a43d d3dd 3c3d c2ae 0d3e
000000c0: eae4 5cbb e7ae cb3d 5c9d f2bd b1af 52be
000000d0: fff5 9d3e a047 0cbe 8686 013e 22b4 81be
000000e0: b638 7bbd 28b4 253d 7d52 413e 5a95 433e
000000f0: 6c6b 933d 33fe 2b3c 0208 d1bd d816 afbe
00000100: 0664 473e 6a7e 3bbe 731d 25be 40fc 8bbe
00000110: d203 543e ef62 9f3e 0eb4 1a3e 23e9 2dbe
00000120: beac b53d 30f9 18be 9cad 75be 26c7 99be
00000130: 7e46 2bbe a877 62be ab55 173e 7846 3cbd
00000140: f08a 13bc b7c4 51be ef9f 96be aed2 9b3e
00000150: c9be b2be 28f1 42be f8e4 3ebe 91b0 cf3c
00000160: 5648 163b e118 21bd 6e6c de3d 4157 043e
00000170: 2f32 c43d eb65 333e 252f c1bd 9db6 c13e
00000180: df49 f43d b423 86be 42ee 573e e306 acbb
00000190: 334e 713e 185e 163f b8fd 6b3e 5ec4 f93d
000001a0: af38 713e 47ed a1be 9c1c ef3d e054 123e
000001b0: d69c 9c3e 739c b9be 8d88 c1bd a448 66bd
000001c0: 3ce8 c0be eee8 2f3d fb81 cebd a73d 8c3d
000001d0: ca12 24be a6ce 403e 8649 23bd 0881 3c3d
000001e0: 9796 d33d 0264 683e b33b 5cbd 20f2 13be
000001f0: fdb2 5bbe db5c d7bd 15fb 3f3d 8a0c b03d
00000200: ddf8 01bf da89 9d3e 148d 37be 994a cb3e
00000210: 8d73 eebd baa8 77bd 1687 e13d 39cb 693e
00000220: 0f06 3d3e 9a18 f43c 8ab0 47be 4253 63bd
00000230: 2d4b f5bd 78e4 84bd cf69 bc3e 3c38 3c3e
00000240: ead7 503d 7cf4 bfbd 64ec aebd 3ad8 9a3e
00000250: 30b4 b4be ae25 b3bc 33f5 573c 3544 713d
00000260: 4c50 a73e 456c cd3d 996c 443e 2013 e8bd
00000270: ec02 07bd 5d85 8cbe cedc 923e 7cc8 8e3e
00000280: 3b4c 343e 3c0a 48bd 9e30 8c3e e812 8f3b
00000290: 3d1b d1bd 631c 3c3e 9e6e fa3d 58f9 64bd
000002a0: fdeb de3d 829d 9fbe 5e94 9a3e 6d10 813e
000002b0: 3c11 b53e 27aa 8fbe dea8 8dbe cce4 d1bc
000002c0: ea44 453e c9db 2e3e 27e1 a6be c64d 3c3e
000002d0: 1b6a 9c3a ce35 09be 837a 3e3e ca01 7ebd
000002e0: 1a1d 8abc c2da 03bd 5266 543e 6b0d a2be
000002f0: 5dcb 53be f195 08be 1076 393e a35e 063e
00000300: 0557 ef3d c305 d338 848e 9a3e 6e79 89be
00000310: 94d9 65bd 24b6 90bb 97a7 4fbe bbd3 1abe
00000320: 7463 1bbe af01 e03d 21f8 35be bf7e 4cbe
00000330: c9ff 2e3e 3e9a 3c3e 5ddd 09be 5f09 7ebe
00000340: 1174 11be ab51 1abe a8eb 6d3e 7bc3 42be
00000350: 1980 9dbd 67fa 2cbe 00cd 9d3e a95d 5dbe
00000360: 5d12 aa3e cbbf 94be 92b7 a9bc 9f57 a7bd
00000370: 9ca4 50be a134 9fbe 3a6d 193e acc0 27be
00000380: e72a 2fbe 0d55 743d ed5a 49bd 72c0 0f3e
00000390: 7839 3fbe 0074 74be 06dd 72be 966e 3cbe
000003a0: e292 94bd c6dc bdbd cf73 13bd 8e1c 1b3b
000003b0: 1b33 eebd 5d27 13be dbe6 803d c14d 40be
000003c0: 0077 fcbd 5cff 0ebd b04a 3bbd 05d2 983d
000003d0: fde9 0abd cdb6 f3bd 10c4 8cbd d2d1 babb
000003e0: 53b3 4a3d 1524 d3bd fdd7 68be 22a1 bfbd
000003f0: dc7b 3cbe d139 4a3d 7d57 32bd d75e a63d

StatefulPartitionedCall/model/time_distributed/dense/BiasAdd/ReadVariableOp:0 f4 [16]
0.033343103 0.009946044 -0.033833105 0.0023975004 0.011698851 -0.0219588 -0.11281997 0.0035674965
-0.15082389 0.1593906 -0.10331217 -0.08435819 0.08847362 0.17530815 -0.062499493 0.032536637
00000000: c792 083d bbf4 223c 9594 0abd 621f 1d3b
00000010: 8aac 3f3c f1e2 b3bc 280e e7bd a9cc 693b
00000020: 9471 1abe 4a37 233e 5595 d3bd fdc3 acbd
00000030: a831 b53d fb83 333e 78ff 7fbd 2345 053d

Func/StatefulPartitionedCall/model/bidirectional_1/forward_gru_2/PartitionedCall/input/_46:0 f4 [10, 30]
-0.08139958 -0.27773458 -0.15072863 0.77523357 0.15634502 -0.0989431 -0.11652573 0.16942921
-0.51560485 -0.6304439 0.1421325 0.16806512 0.0033703556 -0.13288368 0.39733288 0.28931263
0.052294552 0.33753547 0.013988649 -0.1080415 0.0085914405 -0.30445218 0.07893552 0.19626753
-0.24167666 0.3967099 -0.061953638 0.13453099 0.20504303 -0.12811667 0.23826842 0.16674694
-0.56298757 0.2985145 0.4618981 -0.65928054 -0.3746366 -0.09490019 0.6232049 -0.35830304
-0.07652177 0.55084795 0.07712251 0.54152954 -0.37117335 0.67376035 0.9084254 -0.10909225
0.36658928 -0.12289093 0.43278515 0.37819567 -0.2574978 0.31100428 -0.4179004 -0.17616187
0.03011103 0.19101728 0.140268 0.3572446 -0.002228577 0.2651992 0.032928456 -0.5721948
-0.76095855 0.61942023 0.19912615 -0.5878905 0.0868562 1.2716151 0.02742123 -0.36764875
1.3561419 -0.21514452 0.3873345 -0.51222205 0.29533282 0.16981798 0.836234 -0.38329488
-0.08894176 0.17661944 0.24976963 0.050357886 0.048942026 -0.3711317 0.20408176 -0.30960447
-0.26375023 -0.022647133 -0.013640305 1.1054062 -0.5347204 -0.28217143 1.051202 0.21479346
-0.5020893 0.01569613 1.1057065 -0.12988168 0.015945166 0.5634088 0.29095873 0.5475146
-0.732599 -0.0050267694 0.62309164 -0.23046859 0.5436137 -0.61965644 0.06329928 0.38677996
0.41133988 0.0376848 0.2827356 -0.15000781 0.2905647 -0.012759126 -0.34481493 -0.21834083
0.029240401 -0.838453 -0.43061328 0.15230829 -0.43099102 -0.626506 0.5022712 0.64902997
0.31648996 -0.78892463 -0.4938969 0.20261414 -0.78723115 -0.15450482 -0.41408074 -0.06735164
0.55014217 -0.38206092 -0.3515485 0.12109223 -0.12493659 0.16891412 0.1321034 -0.14709365
-0.018762255 -0.30086094 0.12992083 -0.19867983 -0.030961268 -0.37115094 0.16021691 -0.17483479
-0.15930173 -0.57531947 0.09940563 -0.12225645 -0.29977882 -0.37669796 0.052838933 0.23878437
0.29985777 -0.7874921 -0.38106996 -0.39548302 0.20953763 0.21508844 -0.6051021 0.11127382
-0.3799304 0.6098786 -0.3657258 0.08562428 -0.24634513 -0.362314 -0.011526118 0.1845097
0.026206154 0.15189353 0.47262767 0.51598704 0.07096823 0.7676115 -0.002205659 -0.28677586
-0.056329552 -0.22608037 0.07747943 0.6119832 0.8913332 0.7095774 -0.24850631 0.7220354
-0.3541985 0.7335983 -1.2569028 0.49642146 1.0091752 -0.3495985 0.27325773 -0.54220486
-0.056393646 0.41509464 0.07379403 0.5752771 0.15335958 -0.4949645 0.32072464 0.3947025
-0.18078588 -0.34172565 0.58367336 -0.19674014 -0.056774043 0.4477729 0.37000567 0.16568169
0.75109136 0.06753394 -0.081167355 -0.4096657 -0.12138099 0.034831222 0.44644833 0.112775534
-0.28282613 0.15093386 -0.14984131 0.2708642 -0.0013638085 0.19293107 0.0318418 -0.56490076
0.1451791 -0.37712628 -0.24094123 -0.01859446 -0.11178083 -0.06150542 0.3130277 -0.059225164
-0.16018781 -0.45480427 0.5588048 0.13486236 -0.34597296 0.010855746 0.033108726 -0.27399135
0.15345165 -0.35824892 -0.10925748 -0.7146001 -0.94607663 -0.6229757 0.025845 -0.07187552
00000000: d3b4 a6bd 3a33 8ebe 9b58 1abe b575 463f
00000010: e918 203e aea2 cabd 0ba5 eebd da7e 2d3e
00000020: aefe 03bf c564 21bf 2f8b 113e 4319 2c3e
00000030: 2fe1 5c3b a912 08be 376f cb3e c920 943e
00000040: d032 563d 73d1 ac3e a530 653c dd44 ddbd
00000050: 1dc3 0c3c 28e1 9bbe f2a8 a13d 5bfa 483e
00000060: 167a 77be 8f1d cb3e 19c3 7dbd 7ec2 093e
00000070: cdf6 513e 0431 03be a3fc 733e b6bf 2a3e
00000080: f41f 10bf e4d6 983e e87d ec3e 9cc6 28bf
00000090: 5ed0 bfbe 085b c2bd 5b8a 1f3f 7f73 b7be
000000a0: 72b7 9cbd 5f04 0d3f 68f2 9d3d aea1 0a3f
000000b0: 6f0a bebe 8f7b 2c3f 918e 683f c26b dfbd
000000c0: 97b1 bb3e 3dae fbbd 0496 dd3e dda2 c13e
000000d0: c0d6 83be f43b 9f3e 0bf7 d5be c763 34be
000000e0: 68ab f63c 099a 433e 6aa2 0f3e c4e8 b63e
000000f0: 510d 12bb 31c8 873e fddf 063d 5c7b 12bf
00000100: 2ece 42bf 5392 1e3f bae7 4b3e fe7f 16bf
00000110: aae1 b13d 49c4 a23f 7da2 e03c 753c bcbe
00000120: 0f96 ad3f d84e 5cbe b550 c63e fc20 03bf
00000130: dd35 973e c4e4 2d3e 6e13 563f 3a3f c4be
00000140: 1927 b6bd badb 343e 9cc3 7f3e 1244 4e3d
00000150: 6f77 483d f904 bebe cffa 503e 7a84 9ebe
00000160: 450a 87be 7b86 b9bc 967b 5fbc f37d 8d3f
00000170: 70e3 08bf c678 90be ca8d 863f d1f2 5b3e
00000180: ed88 00bf 2c95 803c ca87 8d3f b4ff 04be
00000190: 709f 823c 8f3b 103f 8bf8 943e eb29 0c3f
000001a0: 9c8b 3bbf 99b7 a4bb ef82 1f3f f5ff 6bbe
000001b0: 442a 0b3f cea1 1ebf 0ea3 813d 0608 c63e
000001c0: 249b d23e 605b 1a3d b8c2 903e a69b 19be
000001d0: e5c4 943e a70b 51bc 958b b0be bd94 5fbe
000001e0: 9189 ef3c dba4 56bf 5879 dcbe b4f6 1b3e
000001f0: dbaa dcbe b262 20bf d894 003f d426 263f
00000200: f90a a23e f7f6 49bf 0ee0 fcbe 157a 4f3e
00000210: fb87 49bf 8336 1ebe 6402 d4be a8ef 89bd
00000220: 1ed6 0c3f 7d9d c3be 2afe b3be 34ff f73d
00000230: c1de ffbd d3f7 2c3e 1d46 073e b89f 16be
00000240: 4db3 99bc 720a 9abe f709 053e ba72 4bbe
00000250: 7ca2 fdbc 7f07 bebe e70f 243e e407 33be
00000260: fe1f 23be 2348 13bf 2e95 cb3d 9761 fabd
00000270: 9c7c 99be 8ede c0be a36d 583d e483 743e
00000280: f586 993e 1599 49bf 9a1b c3be c07c cabe
00000290: 0891 563e 2540 5c3e f9e7 1abf 87e3 e33d
000002a0: 3d86 c2be 0121 1c3f 6940 bbbe c85b af3d
000002b0: e641 7cbe 3881 b9be 0bd8 3cbc 1cf0 3c3e
000002c0: 4aae d63c fa89 1b3e 41fc f13e ba17 043f
000002d0: cb57 913d 3082 443f d18c 10bb 49d4 92be
000002e0: d1b9 66bd 9d81 67be 89ad 9e3d eeaa 1c3f
000002f0: 6a2e 643f dda6 353f 7078 7ebe 50d7 383f
00000300: 8159 b5be 19cd 3b3f 31e2 a0bf f42a fe3e
00000310: a72c 813f 93fe b2be 70e8 8b3e f0cd 0abf
00000320: 06fd 66bd 4987 d43e 5321 973d 5c45 133f
00000330: 4b0a 1d3e fd6b fdbe 0536 a43e 7216 ca3e
00000340: ef1f 39be aaf6 aebe 9e6b 153f 3f76 49be
00000350: e68b 68bd 7d42 e53e 6271 bd3e 76a8 293e
00000360: 8647 403f 3c4f 8a3d 123b a6bd b4bf d1be
00000370: 9996 f8bd 2fab 0e3d e094 e43e dcf6 e63d
00000380: 96ce 90be 688e 1a3e 0070 19be b6ae 8a3e
00000390: d2c1 b2ba b98f 453e 8c6c 023d 569d 10bf
000003a0: d4a9 143e b216 c1be 4cb9 76be 6953 98bc
000003b0: 59ed e4bd 1bed 7bbd 2b45 a03e 1696 72bd
000003c0: 4608 24be 1bdc e8be d50d 0f3f 5c19 0a3e
000003d0: 5e23 b1be 4ddc 313c 049d 073d 9848 8cbe
000003e0: 6e22 1d3e 676c b7be 63c2 dfbd 08f0 36bf
000003f0: 1432 72bf 567b 1fbf e5b8 d33c 7933 93bd

Func/StatefulPartitionedCall/model/bidirectional_1/forward_gru_2/PartitionedCall/input/_45:0 f4 [15, 30]
0.5337782 -0.029936843 0.43394944 0.3437681 -0.33830371 0.11068335 0.24273624 0.013522404
0.46611246 -0.54571235 -0.17480251 -0.024027199 0.037640058 -0.051936697 -0.116890624 0.06275272
0.3599051 0.18229297 -0.050431505 -0.261326 0.025900997 0.17736727 -0.16494684 -0.13677295
0.30161834 0.036968768 0.0019878917 0.23507449 0.26418027 0.335624 0.011609868 0.969939
-0.68009377 -0.16919273 1.3108404 -0.05058664 0.6890041 0.81853586 0.041591708 0.7332944
0.29282472 0.51437473 0.3961588 0.3430223 -0.24332628 -0.4021583 0.91153395 -0.29998127
0.97809786 -0.426896 0.24138589 -0.14584672 0.05302369 0.21911058 -0.44173956 -0.0015664143
-0.0757157 0.19028078 -0.1683191 0.104189776 0.350399 -0.57463986 -0.9822394 0.1027951
0.12491597 -0.14380528 -0.2190926 0.029665416 -0.2927961 1.0402591 -0.04959405 0.48792493
0.088999 0.5334918 0.10130025 0.28962216 0.43468007 0.23903042 0.6848689 -0.15261461
0.27559644 0.3259717 -0.049733035 0.12784359 -0.00022500879 -0.17043576 -0.044042382 0.13658631
-0.30632317 -0.314878 0.23884209 -0.2367988 0.7841511 0.8762837 -1.1907518 -0.1562323
0.44568074 -0.24514903 -0.29186648 -0.7206898 0.04456408 -0.4835373 -0.28032187 0.2150361
0.036873624 0.08710137 -0.05000413 -0.055187244 -0.42602226 0.11746507 0.13059856 -0.23778796
-0.413671 0.25044033 0.013304167 0.016547987 0.19001895 -0.13309146 0.35292706 0.28807905
-0.48402855 0.11629224 0.70973724 0.49729908 0.9329067 0.14289507 0.0072335396 0.1283599
-0.1186533 -0.5785822 0.15220566 0.5798304 0.24606828 0.013958067 -0.61773765 0.3538827
0.21723142 -0.35744846 0.24400775 -0.07771672 0.25892287 0.42671067 -0.058744334 0.023661284
0.07029948 0.15549473 0.30519822 -0.2491657 0.26044646 0.5408785 0.14988114 -0.04660294
0.132652 -0.32217866 0.1430497 0.330965 0.3269547 0.3155206 0.8607507 0.32453832
-0.31782743 -0.45333785 0.18654242 0.24231495 -0.27205503 -0.11278983 0.047720376 -0.29337868
0.055394217 -0.2378602 -0.14228041 -0.006740352 0.31660074 0.2603511 0.15787598 0.07164436
0.07452763 0.0543901 -0.38264316 -0.21758534 -0.3600569 -2.2565446 0.008939134 0.7557981
-1.5017223 -0.022048838 0.0015570073 -1.0838525 -0.77517736 -1.3595676 0.4499692 0.02729658
-0.097592406 -0.79732305 1.1363448 -0.23195434 -0.7802981 1.0119672 -0.12395569 0.68084705
0.2899741 -0.6351517 0.00939066 0.006287671 -0.0531969 0.05355617 -0.5017874 0.38318482
0.3970076 -0.29818743 -0.25870708 0.27270678 0.24937996 0.23986717 -0.13920692 0.59137875
-0.108015075 -0.024354316 -0.021429008 -0.27312618 -0.32439741 0.51227814 0.14523533 -0.09102601
-0.11054588 0.22501191 0.049163494 0.060667638 0.13254015 0.048213188 0.04011684 -0.17648047
-0.14306253 -0.16066985 0.19863974 -0.13300914 -0.20605747 -0.22599666 0.071563356 0.19214614
-0.73536587 0.3843384 0.19150905 -0.011389318 0.121226564 0.229706 -0.14998811 -0.038196765
0.25964183 0.79111046 -0.118815005 -0.20845884 0.5598856 0.0060665105 0.43860427 0.11528907
00000000: b0a5 083f 1c3e f5bc 9f2e de3e 5f02 b03e
00000010: 2536 adbe f4ad e23d d98f 783e 138d 5d3c
00000020: 4ba6 ee3e ceb3 0bbf 6eff 32be b0d4 c4bc
00000030: 762c 1a3d 93bb 54bd 5a64 efbd 8084 803d
00000040: 7b45 b83e 02ab 3a3e 4491 4ebd 85cc 85be
00000050: 542e d43c c49f 353e d3e7 28be 350e 0cbe
00000060: b86d 9a3e 906c 173d 4a47 023b 5eb7 703e
00000070: a342 873e e9d6 ab3e 5137 3e3c ec4d 783f
00000080: a01a 2ebf dc40 2dbe 9ec9 a73f f033 4fbd
00000090: 9362 303f 918b 513f 115c 2a3d 2fb9 3b3f
000000a0: 1fed 953e 10ae 033f 54d5 ca3e 9ea0 af3e
000000b0: 862a 79be b1e7 cdbe 4a5a 693f 2597 99be
000000c0: 9f64 7a3f 1d92 dabe dd2d 773e d858 15be
000000d0: 5e2f 593d 865e 603e b02b e2be 2450 cdba
000000e0: d510 9bbd f7d8 423e d85b 2cbe 7361 d53d
000000f0: 7f67 b33e 991b 13bf 0b74 7bbf 3d86 d23d
00000100: f2d3 ff3d b141 13be cf59 60be e304 f33c
00000110: 5fe9 95be 3627 853f 2123 4bbd 4cd1 f93e
00000120: 1c45 b63d eb92 083f 8176 cf3d 5b49 943e
00000130: 638e de3e 64c4 743e 9153 2f3f 0147 1cbe
00000140: fa1a 8d3e c3e5 a63e deb4 4bbd 6ee9 023e
00000150: 56f0 6bb9 b686 2ebe c965 34bd 48dd 0b3e
00000160: 64d6 9cbe b037 a1be 0593 743e 627b 72be
00000170: 20be 483f 2154 603f 8e6a 98bf 5cfb 1fbe
00000180: 4430 e43e 5908 7bbe 866f 95be 207f 38bf
00000190: d388 363d 3392 f7be 5986 8fbe 6c32 5c3e
000001a0: cc08 173d 3462 b23d 21d1 4cbd 050c 62bd
000001b0: 971f dabe 8791 f03d a1bb 053e b07e 73be
000001c0: afcc d3be b739 803e b9f9 593c a58f 873c
000001d0: 5494 423e 2149 08be dbb2 b43e 197f 933e
000001e0: 97d2 f7be a02a ee3d 57b1 353f fc9d fe3e
000001f0: f9d2 6e3f 1653 123e 5407 ed3b c770 033e
00000200: 8000 f3bd f71d 14bf cddb 1b3e c46f 143f
00000210: 53f9 7b3e 60b0 643c 0e24 1ebf 1d30 b53e
00000220: ea71 5e3e 7c03 b7be 2bdd 793e f229 9fbd
00000230: 8a91 843e d279 da3e e69d 70bd 4fd5 c13c
00000240: 2cf9 8f3d 033a 1f3e f142 9c3e 4b25 7fbe
00000250: 3d59 853e 0377 0a3f 717a 193e b9e2 3ebd
00000260: edd5 073e 9af4 a4be 9f7b 123e 3f74 a93e
00000270: 9b66 a73e eb8b a13e 285a 5c3f e329 a63e
00000280: 47ba a2be e61b e8be fa04 3f3e 6921 783e
00000290: cc4a 8bbe 5bfe e6bd 7176 433d bb35 96be
000002a0: 0ce5 623d a091 73be f5b1 11be 2cde dcbb
000002b0: 7e19 a23e bd4c 853e 3eaa 213e 47ba 923d
000002c0: f1a1 983d 27c8 5e3d cee9 c3be b1ce 5ebe
000002d0: 6159 b8be 3a6b 10c0 7275 123c fc7b 413f
000002e0: 7038 c0bf c49f b4bc 7f14 cc3a aebb 8abf
000002f0: 0672 46bf 5006 aebf 5d62 e63e 149d df3c
00000300: 87de c7bd 5d1d 4cbf bf73 913f 7085 6dbe
00000310: 9ec1 47bf 2488 813f 7bdc fdbd fe4b 2e3f
00000320: 7c77 943e 4d99 22bf 48db 193c cf08 ce3b
00000330: fee4 59bd b75d 5b3d 2475 00bf cd30 c43e
00000340: 9544 cb3e 06ac 98be 4175 84be 39a0 8b3e
00000350: 765d 7f3e bd9f 753e 428c 0ebe 9964 173f
00000360: 0237 ddbd b482 c7bc e38b afbc 32d7 8bbe
00000370: 6b17 a6be a924 033f 92b8 143e d86b babd
00000380: e165 e2bd 8669 663e a95f 493d a17e 783d
00000390: 9bb8 073e 317b 453d 8e51 243d 4cb7 34be
000003a0: fc7e 12be a386 24be 3768 4b3e 8c33 08be
000003b0: bb00 53be ab6b 67be cf8f 923d f5c1 443e
000003c0: f040 3cbf 01c8 c43e f31a 443e 439a 3abc
000003d0: a245 f83d 0d38 6b3e 7c96 19be 3674 1cbd
000003e0: c6ef 843e 3786 4a3f 4855 f3bd 3c76 55be
000003f0: aa54 0f3f 94c9 c63b bd90 e03e ad1c ec3d

Func/StatefulPartitionedCall/model/bidirectional_1/backward_gru_3/PartitionedCall/input/_56:0 f4 [5, 15]
0.28880787 0.38566905 0.06568288 -0.17606723 0.14601146 0.5019506 0.56686586 -0.14391951
0.36941114 0.09458739 0.3653668 -0.3900332 0.016696738 0.33574536 -0.063729994 -0.5034365
-0.4831346 0.20023817 0.32662836 -0.8095897 -0.1411414 -0.054971572 0.11526215 -0.09523558
-0.10761682 -0.33018988 -0.15624435 0.066213734 -0.5059032 -0.012098651 -0.5540436 0.09099546
-0.13852209 -0.08376635 0.061180253 -0.11316503 0.14777437 0.6709171 0.47279185 0.37381038
-0.07991329 0.39909446 -0.15642963 -0.0852508 -0.10537016 0.31139007 0.2562458 -0.12188556
0.007934077 0.20723534 0.059677362 -0.2560165 -0.14089182 0.24656968 0.13308047 0.07586857
-0.3513396 0.49171895 0.3304457 -0.46479052 0.3526908 0.4721952 -0.31404772 0.14650495
-0.90147245 0.3867205 0.4633788 -0.8553109 0.27812102 -0.37302792 0.015830047 -0.010485775
0.68764573 -0.22397259 -0.20101489
00000000: a0de 933e 6a76 c53e bf84 863d f84a 34be
00000010: 0784 153e d67f 003f 1f1e 113f a35f 13be
00000020: 7523 bd3e 09b7 c13d 5b11 bb3e 6eb2 c7be
00000030: 99c7 883c d1e6 ab3e df84 82bd 37e1 00bf
00000040: 6b5d f7be 3c0b 4d3e d53b a73e 4541 4fbf
00000050: 5f87 10be df29 61bd 900e ec3d df0a c3bd
00000060: 3566 dcbd a60e a9be 85fe 1fbe 119b 873d
00000070: df82 01bf 6c39 46bc cdd5 0dbf d45b ba3d
00000080: bcd8 0dbe b18d abbd 2598 7a3d 11c3 e7bd
00000090: 2a52 173e 39c1 2b3f c611 f23e 1364 bf3e
000000a0: 94a9 a3bd 1c56 cc3e 172f 20be f997 aebd
000000b0: 4fcc d7bd 856e 9f3e a632 833e 239f f9bd
000000c0: eefd 013c 8035 543e 4070 743d 9814 83be
000000d0: f245 10be c37c 7c3e 3f46 083e fb60 9b3d
000000e0: c9e2 b3be 96c2 fb3e 2e30 a93e 06f9 edbe
000000f0: e393 b43e 92c3 f13e ddca a0be 6505 163e
00000100: e6c6 66bf 3b00 c63e fc3f ed3e a8f5 5abf
00000110: e165 8e3e 84fd bebe 04ae 813c 87cc 2bbc
00000120: 8d09 303f 1259 65be d9d6 4dbe

Func/StatefulPartitionedCall/model/bidirectional_1/backward_gru_3/PartitionedCall/input/_55:0 f4 [15, 15]
0.33412468 0.09492227 0.17762321 0.46266752 -0.15179662 -0.27418867 -0.09474349 0.110564984
-0.5129957 0.18490644 0.250699 0.20987453 -0.34761867 0.19485983 0.09356382 0.1696964
0.016893318 0.07490682 0.0650875 0.45468095 0.2514433 0.40989095 -0.07222105 0.4103428
-0.45255706 0.3759863 -0.23194534 -0.27009857 0.53201467 0.38054088 -0.14367355 0.38625586
0.54055583 -0.89246744 0.019166056 -0.2832855 -0.28528443 0.2442265 0.02169833 -0.53849477
0.12899177 -0.3018729 0.41866037 0.4485541 0.037875835 0.49718702 -0.10295653 0.060458038
0.5373578 -0.37033865 -0.1766922 -0.32159138 0.071238846 0.18542196 -0.19583195 -0.3417857
0.36503595 -0.40871227 -0.43692276 -0.17651945 0.58142704 -0.23669297 -0.23304018 -0.022049183
0.43562943 -0.51126444 0.41140747 -0.376092 -0.38825023 0.5928184 -0.12354233 0.73426044
-0.26105836 0.3386141 0.115168065 0.11045625 0.8087637 -0.19403842 0.45382532 0.62739664
0.2779831 -0.40584922 -0.4303011 -0.08168318 0.111337185 0.25726333 -0.36894283 0.13240996
-0.18134952 0.19129981 0.5221403 -0.40404454 -0.065387286 0.6100869 -0.7674527 -0.20719373
0.0061648367 0.009094727 -0.03125775 0.2090958 0.038104057 -0.19465117 0.13350798 -0.3159444
-0.09222996 0.120616265 -0.55484575 0.1915984 -0.04095359 -0.5164116 0.38497946 0.063144445
0.3239603 -0.271731 0.24821794 -0.09326618 0.43531471 -0.17258674 -0.44921452 -0.09431217
-0.06783298 -0.6641937 0.25003028 -0.3492236 0.45839384 0.07751984 0.14399207 0.5103988
0.3888584 0.21897389 0.17976914 0.00015430411 -0.010421202 0.02348167 0.09083836 -0.31233767
-0.1440512 -0.21769896 0.6574521 0.12911321 0.03353379 -0.13505322 0.42534932 -0.33500594
0.38114017 0.2367292 -0.2442691 -0.33090872 -0.2194223 0.2999399 -0.71085304 -0.20350204
0.063710086 -0.8743181 0.048369158 -0.0017727689 -0.54675776 -0.21433526 0.13967474 0.06623062
0.021188904 -0.049974605 -0.007324166 -0.3717987 0.120854326 0.05998498 0.15502657 -0.28364408
0.20540048 -1.0708501 -0.28113455 -0.23790891 -0.58461833 -0.05064304 -0.30061117 -0.26681772
-0.15869246 -0.11686812 -0.0886628 -0.20739642 0.34370688 0.29869306 -0.008246392 -0.16164684
-0.03337435 0.3905664 0.2685337 0.6123946 -0.21130683 -0.021575259 0.4309137 -0.24768828
0.28114673 -0.41547024 0.17417544 0.16588941 0.030909313 -0.33764997 0.25021487 0.4219044
-0.46073326 -0.08386118 -0.044857398 -0.46888816 0.17119542 -0.013579031 -0.025508039 0.55926603
0.10812828 -0.3452257 0.27922633 -0.38331723 0.35971072 -0.04139495 0.101620056 -0.13490118
0.25401005 0.20386456 0.5506381 0.1865131 0.020898867 -0.24321392 0.13176607 0.3497743
0.13172379
00000000: 6412 ab3e 9b66 c23d dce2 353e c2e2 ec3e
00000010: 9370 1bbe 7562 8cbe e008 c2bd e56f e23d
00000020: b053 03bf 1d58 3d3e 9f5b 803e 59e9 563e
00000030: 13fb b1be 5689 473e 639e bf3d e5c4 2d3e
00000040: db63 8a3c bf68 993d 984c 853d f1cb e83e
00000050: 2dbd 803e 3add d13e a1e8 93bd 7418 d23e
00000060: 8fb5 e7be 4781 c03e 1483 6dbe 5c4a 8abe
00000070: 1d32 083f 41d6 c23e 291f 13be 54c3 c53e
00000080: de61 0a3f bf78 64bf 2202 9d3c cc0a 91be
00000090: cd10 92be 8316 7a3e b2c0 b13c cbda 09bf
000000a0: 6b16 043e 168f 9abe a75a d63e e2a8 e53e
000000b0: b123 1b3d 4c8f fe3e e0da d2bd d9a2 773d
000000c0: 4890 093f 079d bdbe cdee 34be a0a7 a4be
000000d0: ace5 913d 41df 3d3e 2c88 48be 89fe aebe
000000e0: fee5 ba3e bc42 d1be 57b4 dfbe 84c1 34be
000000f0: 67d8 143f a45f 72be 16a2 6ebe 7da0 b4bc
00000100: d20a df3e 3ae2 02bf 00a4 d23e 218f c0be
00000110: bcc8 c6be f2c2 173f c303 fdbd 7ef8 3b3f
00000120: 71a9 85be d45e ad3e 3cdd eb3d e336 e23d
00000130: 230b 4f3f 02b2 46be cb5b e83e 119d 203f
00000140: cd53 8e3e 78cb cfbe 6d50 dcbe 8349 a7bd
00000150: c004 e43d 05b8 833e 13e6 bcbe 7a96 073e
00000160: b0b3 39be 19e4 433e fdaa 053f edde cebe
00000170: c5e9 85bd a82e 1c3f c877 44bf 982a 54be
00000180: 6602 ca3b 0d02 153c 2008 00bd 361d 563e
00000190: 0013 1c3d a352 47be 51b6 083e 77c3 a1be
000001a0: 10e3 bcbd a905 f73d 5f0a 0ebf 5f32 443e
000001b0: f4be 27bd 8d33 04bf 071c c53e e051 813d
000001c0: 20de a53e 5320 8bbe d82c 7e3e 5702 bfbd
000001d0: 92e1 de3e 94ba 30be 72ff e5be bd26 c1bd
000001e0: 04ec 8abd 9908 2abf f803 803e 70cd b2be
000001f0: 99b2 ea3e b9c2 9e3d a872 133e 7fa9 023f
00000200: 7318 c73e b13a 603e 6715 383e b2cc 2139
00000210: b0bd 2abc a25c c03c 7609 ba3d b9ea 9fbe
00000220: 2882 13be 7aec 5ebe c84e 283f 4136 043e
00000230: ba5a 093d 644b 0abe 63c7 d93e e685 abbe
00000240: ce24 c33e 2469 723e ae21 7abe de6c a9be
00000250: 3db0 60be b991 993e 77fa 35bf d762 50be
00000260: 6f7a 823d 50d3 5fbf bd1e 463d 415c e8ba
00000270: 51f8 0bbf b47a 5bbe e506 0f3e eba3 873d
00000280: 5a94 ad3c 2cb2 4cbd 8fff efbb 665c bebe
00000290: 7982 f73d cfb2 753d 49bf 1e3e cc39 91be
000002a0: 8154 523e 9e11 89bf def0 8fbe 659e 73be
000002b0: 8ca9 15bf 146f 4fbd b5e9 99be 559c 88be
000002c0: 4780 22be 8e58 efbd d894 b5bd ba5f 54be
000002d0: 59fa af3e 4cee 983e e01b 07bc c086 25be
000002e0: 8bb3 08bd 52f8 c73e 407d 893e e4c5 1c3f
000002f0: d160 58be 99be b0bc b8a0 dc3e ffa1 7dbe
00000300: 77f2 8f3e 84b8 d4be 0c5b 323e eade 293e
00000310: 8735 fd3c 75e0 acbe 2a1c 803e db03 d83e
00000320: 3be5 ebbe 69bf abbd 64bc 37bd 1c12 f0be
00000330: da4d 2f3e 967a 5ebc 3cf6 d0bc 0f2c 0f3f
00000340: 5c72 dd3d 6cc1 b0be c1f6 8e3e 2842 c4be
00000350: 012c b83e c08d 29bd 2d1e d03d 8923 0abe
00000360: 9b0d 823e dfc1 503e 9ef6 0c3f 4afd 3e3e
00000370: 1a34 ab3c 120d 79be afed 063e 9e15 b33e
00000380: 9ae2 063e

Func/StatefulPartitionedCall/model/bidirectional/forward_gru/PartitionedCall/input/_26:0 f4 [10, 30]
-0.33940527 0.06740432 0.29585797 0.97687024 0.93777245 0.31651637 0.4346547 -0.07933279
0.34595042 0.17216797 -0.031942986 0.010530798 0.08728756 -0.34776932 0.08797167 -0.18234624
-0.022036197 -0.20251617 -0.45320293 0.41229558 -0.028697114 -0.198382 -0.096364945 -0.2373398
0.04982191 0.09263374 -0.104731075 -0.20769878 -0.045891877 -0.07786765 0.8797776 -0.120569564
0.040181555 0.30006766 1.6253678 -0.07463642 0.30657563 -0.14516641 -0.25955373 0.37853268
-0.5894601 0.32910466 0.12760139 0.42521632 0.2172968 0.025346816 -0.5431068 -0.3150235
0.47025257 -0.10729536 -0.8638971 0.20941825 -0.34139106 -0.076354235 -0.23143406 0.13098095
-0.064049296 0.13610655 0.28142884 0.03367375 -0.20393477 -0.233137 0.2266275 -0.24513333
0.16389494 0.06612206 -0.057945944 0.36100614 -0.17796536 0.12757443 0.31808347 -0.10258973
-0.2141661 -0.25102076 -0.39666367 -0.3434739 -0.5984374 -0.16006537 0.20313007 0.08812642
0.11445466 -0.040651783 -0.17199805 0.015041323 -0.13508989 0.2500974 -0.020039648 -0.13410589
0.038399015 0.07937956 -0.09818397 -0.27337214 0.040914282 -0.544853 -0.618878 0.35862488
0.15461032 -0.039157286 0.29070786 -0.120102055 -0.55444336 -0.30868515 0.20682423 -0.25487882
-0.19780599 -0.07300418 0.15395498 0.11584505 -0.35849085 -0.20188496 -0.23492178 -0.15901823
-0.49839807 -0.056340843 0.16628362 -0.17281212 -0.24693677 -0.05792901 -0.30409807 -0.094261594
0.45814982 -0.3731845 -0.17194462 -0.53299206 -0.29138738 -0.37543702 -0.13816975 -0.21285038
-0.18690413 -0.013961113 -1.1612206 0.25171953 0.014348678 -0.2959123 -0.48943347 -0.32680494
-0.22440024 -0.18877394 -0.44496834 -0.04244036 -0.39523295 0.02137806 0.22419114 -0.008620281
-0.43770006 0.041285086 -0.21307795 0.20690703 -0.19305946 0.011032835 0.73092526 1.0096368
-0.43979 -0.17154825 0.1693128 0.16761215 -0.076202616 -0.060135838 0.31877246 -0.36379173
0.21407194 0.043272667 0.22005092 -0.0036545678 0.07941148 0.14779484 0.10115321 -0.042802308
0.05297543 -0.24722326 -0.12636837 -0.1512083 -0.18065147 -0.18615657 0.17821555 -0.2668348
-0.1837706 -0.20786183 0.2297575 -0.13985035 0.056142196 -0.43493566 0.07079809 0.3090233
-0.19078635 -0.32136443 0.3527566 -0.017230581 -0.16034698 0.41784132 -0.0039024672 -0.5309663
-0.23720835 0.39997214 0.010436144 -0.40963492 -0.52469635 0.24315046 0.0021816115 -0.20149612
0.16261536 0.111257605 0.028430413 0.115393125 0.47721177 -0.35903406 0.10015653 -0.02101828
0.089120634 0.12806682 -0.5175642 -0.11719434 -0.033105448 0.20602138 -0.5143743 0.16609304
-0.5913611 -0.45653245 -0.03276578 -1.0832654 -0.35549152 -0.41664866 -0.09382007 -0.35026094
0.20849557 -0.1619933 0.1184979 0.06683745 -0.23526186 -0.30886048 -0.18281725 -0.015967803
0.0957004 0.32523945 0.24906644 -0.32894078 0.18283334 0.090184465 -0.2132001 -0.11108655
0.0037988143 -0.25075772 0.26316082 0.40125775 0.3575179 -0.64966434 -0.45439273 0.565737
-0.23216884 0.5632356 0.057545524 -0.106190495 0.014040912 -0.029834941 0.31062388 0.08020748
00000000: 87c6 adbe 470b 8a3d b27a 973e 2b14 7a3f
00000010: db11 703f 6f0e a23e 108b de3e 3b79 a2bd
00000020: 6a20 b13e cd4c 303e a6d6 02bd 5e89 2c3c
00000030: d2c3 b23d d20e b2be 7e2a b43d f9b8 3abe
00000040: 4185 b4bc 6660 4fbe 370a e8be 6818 d33e
00000050: 3616 ebbc a724 4bbe fc5a c5bd 3409 73be
00000060: 0f12 4c3d c2b6 bd3d 3f7d d6bd fdae 54be
00000070: 1ff9 3bbd 1379 9fbd 1b39 613f 2ded f6bd
00000080: 6a95 243d 78a2 993e 0d0c d03f fbda 98bd
00000090: 7bf7 9c3e 81a6 14be 3ae4 84be 09cf c13e
000000a0: dbe6 16bf 6880 a83e f0a9 023e f4b5 d93e
000000b0: 0d83 5e3e 20a4 cf3c 0c09 0bbf c34a a1be
000000c0: f2c4 f03e abbd dbbd 5c28 5dbf bd71 563e
000000d0: cfca aebe 9c5f 9cbd 0dfd 6cbe df1f 063e
000000e0: 472c 83bd 845f 0b3e 7117 903e 7ced 093d
000000f0: 47d4 50be 77bb 6ebe 0a11 683e 3b04 7bbe
00000100: 13d4 273e 016b 873d ba58 6dbd ccd5 b83e
00000110: 8d3c 36be dfa2 023e d6db a23e 901a d2bd
00000120: 5c4e 5bbe cb85 80be 8017 cbbe d0db afbe
00000130: 3233 19bf 2de8 23be 5401 503e a07b b43d
00000140: 3467 ea3d 7c82 26bd 4220 30be e26f 763c
00000150: 0155 0abe c40c 803e 302a a4bc 0e53 09be
00000160: 4948 1d3d c091 a23d ad14 c9bd 6ff7 8bbe
00000170: bc95 273d 7c7b 0bbf ca6e 1ebf ae9d b73e
00000180: 2b52 1e3e 6463 20bd a9d7 943e 11f8 f5bd
00000190: 00f0 0dbf fb0b 9ebe bbc9 533e 7a7f 82be
000001a0: a78d 4abe 3783 95bd 60a6 1d3e 2b40 ed3d
000001b0: 1d8c b7be eeba 4ebe 568f 70be add5 22be
000001c0: 082e ffbe a8c5 66bd 4146 2a3e a9f5 30be
000001d0: fedc 7cbe f846 6dbd beb2 9bbe 390c c1bd
000001e0: 9d92 ea3e 0a12 bfbe 4012 30be 2b72 08bf
000001f0: ba30 95be 4839 c0be 5f7c 0dbe 73f5 59be
00000200: cc63 3fbe 27bd 64bc e0a2 94bf 62e1 803e
00000210: b816 6b3c d181 97be 0697 fabe fa52 a7be
00000220: 2dc9 65be f54d 41be e4d2 e3be f1d5 2dbd
00000230: f95b cabe 0b21 af3c 5d92 653e 143c 0dbc
00000240: 391a e0be 8d1a 293d 1b31 5abe 70df 533e
00000250: 61b1 45be 10c3 343c eb1d 3b3f c73b 813f
00000260: 282c e1be 58aa 2fbe 5660 2d3e 85a2 2b3e
00000270: 1e10 9cbd ff50 76bd 2536 a33e e942 babe
00000280: ad35 5b3e ae3e 313d 0755 613e 7981 6fbb
00000290: 7ca2 a23d 8857 173e 6a29 cf3d 7951 2fbd
000002a0: c4fc 583d 1828 7dbe b666 01be 59d6 1abe
000002b0: b3fc 38be d49f 3ebe 237e 363e 929e 88be
000002c0: 5c2e 3cbe bbd9 54be 8d45 6b3e ee34 0fbe
000002d0: 5cf5 653d e3af debe 97fe 903d 4d38 9e3e
000002e0: 7f5d 43be e189 a4be 839c b43e 2627 8dbc
000002f0: 0032 24be 4cef d53e 89c0 7fbb 68ed 07bf
00000300: bfe6 72be 26c9 cc3e 5cfc 2a3c abbb d1be
00000310: 8052 06bf 6ffc 783e 5ef9 0e3b 0055 4ebe
00000320: a484 263e 07db e33d e6e6 e83c 3b53 ec3d
00000330: 1a55 f43e 50d3 b7be de1e cd3d 872e acbc
00000340: e184 b63d f323 033e 167f 04bf 9603 f0bd
00000350: 9499 07bd 45f7 523e 09ae 03bf 4b14 2a3e
00000360: 7163 17bf 9fbe e9be 6935 06bd 71a8 8abf
00000370: fc02 b6be f952 d5be bd24 c0bd 6755 b3be
00000380: dd7f 553e 92e1 25be 07af f23d 13e2 883d
00000390: 7ce8 70be f622 9ebe 7234 3bbe e9ce 82bc
000003a0: 92fe c33d c985 a63e 460b 7f3e ed6a a8be
000003b0: aa38 3b3e a2b2 b83d 2151 5abe 5881 e3bd
000003c0: 87f5 783b 5163 80be 04bd 863e a871 cd3e
000003d0: 960c b73e 6750 26bf 2aa6 e8be 24d4 103f
000003e0: abbd 6dbe 3530 103f dbb4 6b3d 677a d9bd
000003f0: da0b 663c 6868 f4bc 180a 9f3e d243 a43d
