model_sleep_3gru_acc.onnx (onnx, 136084 bytes, 23 tensors)

StatefulPartitionedCall/model/time_distributed_3/dense_3/MatMul/ReadVariableOp:0 f4 [32, 1]
000000 ad 42 fe be c9 54 f4 bd 77 44 7a 3e 8d a8 92 3e
       -0.49660245 -0.11930234 0.2444018 0.2864422
000010 49 e7 37 3e 4c 6a 96 3e fb 83 6f 3e e2 97 78 3e
       0.17959322 0.29377973 0.2339019 0.24276689
000020 06 21 c1 3e 21 3c 78 be 38 4b 65 3d 4e fa 8a 3e
       0.37720507 -0.24241687 0.055979937 0.27144092
000030 11 84 15 bf c5 c6 87 be 05 a4 53 3e cc 3d 4b bf
       -0.5840464 -0.26518837 0.20668037 -0.7939117
000040 4a 02 89 3e ce 28 c2 be e1 79 c8 bd 41 51 1e be
       0.2675956 -0.37921757 -0.097888716 -0.15460683
000050 11 61 43 3e 5a 22 5d 3e c1 ec 55 be 12 a7 19 3e
       0.19079997 0.21595135 -0.20891096 0.15005139
000060 ad 1b 72 bf 4a 26 ad be 61 84 cc bd 05 4c 5c be
       -0.9457348 -0.33818275 -0.09986187 -0.21513374
000070 27 11 67 be 7e 2a b4 bd 01 62 96 3e 58 ce 94 3e
       -0.22565137 -0.08797167 0.29371646 0.29063678

StatefulPartitionedCall/model/time_distributed_2/dense_2/MatMul/ReadVariableOp:0 f4 [32, 32]
000000 2f 35 ab be 0c a7 ed bd 42 ac 7b 3e 7f d6 8c 3e
       -0.33439013 -0.11604127 0.2457743 0.27507398
000010 ae 1a b8 bd c5 09 02 bd f6 a5 13 3e e6 95 a8 3c
       -0.08989464 -0.0317476 0.14418778 0.02057929
000020 58 12 16 3d a3 04 db 3e b1 4d 83 3e 6d 2c df be
       0.036638588 0.42776975 0.2564521 -0.43588582
000030 76 b0 02 bf eb 1c c0 be 34 75 dc bd a4 9d e2 be
       -0.5105051 -0.37522063 -0.10764542 -0.44260895
000040 45 d8 d0 bb d9 33 49 bf b1 20 8d 3e b5 d3 15 3e
       -0.0063734376 -0.7859474 0.27564004 0.14631541
000050 ef f4 de 3c eb a4 a0 bd 72 39 60 bd 7d 7f 6a 3e
       0.027216403 -0.078439556 -0.054742284 0.22900195
000060 df 94 32 3d de 98 67 3a 8b 1e 79 3e 35 11 25 3c
       0.043599006 0.00088347297 0.24328057 0.010074903
000070 a0 d2 05 3d 59 4a a9 3e bb 1f 64 bd 7c 46 9b 3e
       0.03267157 0.33064535 -0.055694323 0.30327213
000080 89 fa b2 be 62 0f c9 3d db 73 9a 3e 4e fa 0f 3e
       -0.34956768 0.09817387 0.30166516 0.14060327
000090 2a 48 92 bc 62 71 1d bd e8 c6 f4 3c d7 98 59 bd
       -0.017856676 -0.03843821 0.029880002 -0.053124275
0000a0 a7 37 38 3e 26 9e 25 3e 0f 10 88 3e 23 09 e8 3d
       0.1798998 0.1617361 0.26574752 0.11329868
0000b0 24 f4 87 be 7c 3f 8f 3e b1 40 48 3c 58 96 5b 3e
       -0.26553452 0.27978122 0.012222455 0.2144407
0000c0 a4 2e 1c be f4 3f 33 3e 0a b7 9c 3d cc 27 09 3d
       -0.15252167 0.17504865 0.076520994 0.03348522
0000d0 29 49 99 be d8 d5 f5 3d 61 3c 59 be 15 3a 44 bd
       -0.2993863 0.12003678 -0.21214439 -0.047906954
0000e0 c8 58 84 bd 26 a1 92 be 34 b4 52 3d 98 35 64 3e
       -0.06462246 -0.28638572 0.051441386 0.2228607
0000f0 70 e4 9e 3e 0f a6 8e 3e 55 0f ff 3d 76 76 82 be
       0.3103366 0.27861068 0.12454096 -0.25481004
000100 4b 7d b8 3d 0f e2 3b be 42 0a 99 bd 73 a4 91 3e
       0.09008273 -0.18347953 -0.0747266 0.28445777
000110 11 ff 02 3e 74 88 9b be 04 f8 d6 3d 56 18 8f bd
       0.12792613 -0.30377543 0.10496524 -0.069870636
000120 34 07 6c 3e cf 5d 05 be 04 66 e3 bd e6 68 a2 3b
       0.23049623 -0.13024066 -0.11103442 0.0049563525
000130 27 dd 42 3e b3 2f 8b 3e 36 a1 ae 3c e2 20 b1 bb
       0.19029675 0.2718483 0.021317106 -0.0054055313
000140 38 3e 81 be 12 61 c2 3e 1a 1b f6 3d bb 8c df bd
       -0.25242782 0.37964684 0.12016888 -0.10915514
000150 86 28 f8 be 75 19 3e bd 53 04 65 bd fc b7 0d be
       -0.48468417 -0.046410996 -0.055912327 -0.13839716
000160 00 db c8 3d 17 1e a6 bc bc bf 24 be 20 eb d7 3c
       0.09807396 -0.02027802 -0.16088766 0.026357234
000170 b1 63 9c be 18 1f 0f be fc 04 65 bc 37 82 1c be
       -0.30544809 -0.13976705 -0.013978239 -0.15284048
000180 1d d1 3f bd f1 51 dd bd 10 50 02 3e cd 12 90 be
       -0.046830285 -0.10806645 0.12725854 -0.28139344
000190 88 db 42 be 4b cf 0b 3e 32 36 70 be 1a 2b 19 3e
       -0.19029057 0.13653295 -0.23458174 0.14957848
0001a0 fc 41 05 3e ff ae 8d be 98 0a 90 3e 32 0d 0d be
       0.13013452 -0.27672574 0.28133082 -0.13774565
0001b0 e8 1d 92 3e 81 5a e1 bd 33 cf 88 be c1 a1 ff 3d
       0.28538442 -0.110035904 -0.2672058 0.12482024
0001c0 d3 f1 14 3d bd 5e 29 be 70 f0 81 3e e2 82 e6 3d
       0.036363434 -0.16540046 0.25378752 0.11255433
0001d0 3f 79 54 be 6c a0 5e 3e 0e 75 45 3e 77 aa a1 3d
       -0.20749377 0.21740884 0.19282934 0.07893842
0001e0 8a 62 d6 3c 36 db f5 3c 55 dc c8 3d a0 fe 95 be
       0.026170034 0.030011754 0.0980765 -0.29295826
0001f0 9a 6f 02 bc 6d e0 07 be 3c b9 9d 3d fe 09 30 3d
       -0.007961178 -0.13269205 0.07701346 0.04297828
000200 3e 8a 9e 3d 0e 7a 37 be 36 3a b4 bd b6 74 f4 bc
       0.07741211 -0.17917654 -0.08800165 -0.029840808
000210 e3 07 05 3e 08 d8 91 be a2 94 83 3e f3 af 44 3e
       0.1299129 -0.2848513 0.25699335 0.19207744
000220 48 78 83 be b2 a9 b6 be 82 a2 80 3d f3 9a 26 3e
       -0.25677705 -0.35676342 0.06280996 0.16270046
000230 3b 46 8c 3e 82 75 54 3d a0 00 3c 3e 50 e8 08 3d
       0.27397332 0.051869877 0.18359613 0.033424675
000240 b8 5e 18 bd 8f 38 d4 3e 0b 09 39 3e 06 1c 9d bc
       -0.037199706 0.414494 0.18069856 -0.019178402
000250 30 f1 7a bb 15 bb 58 3c 95 86 94 3d f1 2c 7d 3e
       -0.0038290732 0.013228198 0.07252232 0.24724175
000260 fb a5 ec 3e b2 f8 04 bd 98 0f ad bd 95 67 cc 3a
       0.46220383 -0.032463737 -0.0845024 0.0015594835
000270 ec 10 a1 be 33 00 f0 3c 09 23 66 3d 4b be 27 be
       -0.31458223 0.02929697 0.056185756 -0.16381185
000280 d9 10 99 3e 9e 61 87 3e ee 1f 97 be e2 79 b3 3d
       0.29895666 0.26441664 -0.29516548 0.08763482
000290 ac 16 93 be 40 cf c8 3d f3 6f ae 3c 32 b5 d7 bd
       -0.28728235 0.09805155 0.021293616 -0.10532607
0002a0 0d 42 9e be 1f 85 31 be c3 37 c2 bd d6 f0 49 3e
       -0.30909768 -0.17335938 -0.09483292 0.19720778
0002b0 fb 69 19 3e 17 26 60 be d8 91 98 3e 7e b1 db bc
       0.14981835 -0.2188953 0.2979877 -0.026818033
0002c0 7d c8 14 be a6 fb d7 bd 26 3d 32 3e 62 eb b8 bd
       -0.14529605 -0.10546045 0.17406139 -0.09029271
0002d0 fe c7 4b be 25 d3 1e be 5b 18 bc bb cf 62 f7 3d
       -0.1990051 -0.15510233 -0.005740208 0.12079393
0002e0 5d d4 bc be 96 a1 43 3e 41 5d 2a be 9f b3 92 3d
       -0.3688077 0.19104609 -0.16637136 0.07163166
0002f0 9f 61 78 bd 7c ac 99 be b1 db 04 be 17 2d 29 3e
       -0.060639974 -0.30014408 -0.1297443 0.16521107
000300 db db b0 3d 73 a7 93 3d 76 7f 5b 3e b4 53 38 bd
       0.08635684 0.07209673 0.21435341 -0.0450017
000310 11 ed 90 be e7 0f d2 bd 82 1b 27 be 87 c3 8b 3d
       -0.28305867 -0.102569394 -0.16319087 0.06824403
000320 fd 3d a3 be a7 4d 33 be 7f 0a 2d be 13 a4 74 be
       -0.3188323 -0.17510091 -0.16898535 -0.23890714
000330 df 80 10 3e ca 5c e6 3d e4 d1 68 3e a2 42 c0 3d
       0.1411166 0.11248167 0.22736317 0.09387709
000340 1f 2e 0d 3c 5f 93 e0 bb ce f0 bd bc 29 fb 43 be
       0.008616953 -0.0068535055 -0.023186114 -0.19138779
000350 24 a6 59 3e a1 9d 61 bd 54 c2 5a 3e 12 5d 31 be
       0.21254784 -0.055081967 0.21363193 -0.1732066
000360 79 a9 da 3e 43 bf f1 bd 8f 4c e6 be 2c 13 99 be
       0.42707422 -0.118040584 -0.44980285 -0.2989744
000370 96 33 07 3e 63 2f 5d be 9e 3e af 3d 28 de 92 bd
       0.13203272 -0.21600108 0.08556865 -0.07171279
000380 77 55 9c 3c ac 86 10 be 92 cf 20 3e c0 13 bf 3d
       0.019083722 -0.14113873 0.15704182 0.09329939
000390 c7 00 85 3e 5c 6d f5 3d f3 0c d8 bd 47 c0 ab 3e
       0.25977156 0.11983749 -0.10549345 0.33545133
0003a0 b7 ef cc bd 71 e8 a2 3e df df c6 3d 5a 99 00 3e
       -0.100066595 0.31817964 0.09710669 0.12558499
0003b0 4c 50 9f bd bb 40 d9 be c4 40 8c 3e 41 45 87 ba
       -0.07778987 -0.42432198 0.27393162 -0.0010320322
0003c0 d3 0b 53 bd 96 8a d0 bc 5e b5 2d be 7a a5 e4 3d
       -0.05152495 -0.025456708 -0.16963717 0.11164375
0003d0 63 9a 01 3e 81 a4 55 bd e5 3d 02 be 71 ce c0 3b
       0.1265655 -0.052158836 -0.12718923 0.0058839847
0003e0 b3 b6 40 be a2 98 97 bc 53 d7 ca 3d 57 01 79 3e
       -0.18819694 -0.018505398 0.09904351 0.24316917
0003f0 83 d4 c7 bd 4d d9 5f be d5 f4 18 3e d6 69 d7 3c
       -0.0975733 -0.21860237 0.14937146 0.026295584

StatefulPartitionedCall/model/time_distributed_2/dense_2/BiasAdd/ReadVariableOp:0 f4 [32]
000000 27 58 aa 3b ed 73 2e bd 9f 1e 56 3d 4f 01 32 3d
       0.005198497 -0.042591024 0.052275296 0.04345828
000010 2d 26 85 3d 50 f4 38 3d 5b 7e 39 3d 67 cf 5d 3d
       0.06501422 0.04515487 0.045286518 0.054152872
000020 b3 fd 2e 3d 4d ad b6 bd 77 51 84 3d c9 a5 a8 3c
       0.042722415 -0.08919773 0.06460851 0.020586865
000030 17 f6 62 bc 4d f8 c7 bc 10 63 6d 3d 93 4d 1e bc
       -0.013852618 -0.024410391 0.0579558 -0.00966205
000040 a9 93 7d 3d 1e 42 22 3c 64 07 28 bd 7e 0e 02 bd
       0.061908398 0.009903459 -0.041022673 -0.031752102
000050 ca ba e0 3d 40 1c 5a 3d b3 c7 27 bd f7 c4 2c 3d
       0.10973127 0.053249598 -0.040961932 0.042180028
000060 64 04 d5 bb 1f 20 47 bc 45 82 3f bd 76 8a 87 bd
       -0.0065007675 -0.012153654 -0.046755094 -0.06618206
000070 64 c8 c7 bc 3e 36 7b bd 37 2b a5 bb 80 82 75 3d
       -0.024387546 -0.061331026 -0.005040552 0.059938908

StatefulPartitionedCall/model/time_distributed_1/dense_1/MatMul/ReadVariableOp:0 f4 [32, 32]
000000 b4 08 3b 3e ee a0 3f be f6 a1 88 3d dd 8a 85 3e
       0.18265039 -0.18713734 0.066715166 0.26082507
000010 4a f8 ec 3d 8b 31 5f be 6a d7 64 be e7 b6 97 3d
       0.11570795 -0.21796243 -0.22347799 0.07407933
000020 44 2d 85 3e 2f d8 71 3c a1 42 27 be 6d 76 be 3d
       0.26011097 0.014761015 -0.1633401 0.09299932
000030 27 70 56 3e 4f 34 ea 3d a8 07 99 3d b4 d7 25 3c
       0.2094122 0.11435758 0.074721634 0.010122228
000040 bd 1a e6 bd f1 76 d7 be 77 d8 b8 be a5 6d d8 bd
       -0.11235569 -0.42082933 -0.3610265 -0.10567788
000050 70 04 25 3e 59 f5 8e 3e 27 18 54 3e 88 49 31 be
       0.16114974 0.2792156 0.20712338 -0.17313206
000060 89 a8 00 be ff 33 af be cd 16 58 3e 6d fb 89 bd
       -0.12564291 -0.34219357 0.21102448 -0.06737409
000070 9c be 80 3e 07 ec 6e be a2 b4 da bd ec 01 16 3d
       0.25145423 -0.23332225 -0.10678984 0.036622927
000080 4f ee 72 3e 8a 7a 14 3e 0b d2 33 3e 64 d1 5e be
       0.2372372 0.1449987 0.17560594 -0.21759564
000090 55 5e fa 3d 5f ed 40 bc 3c 81 93 be a4 31 86 3e
       0.12225024 -0.011775344 -0.28809536 0.26209748
0000a0 c3 43 93 3e 26 e2 b5 3d 90 d0 ac 3e 3b b1 b1 be
       0.28762636 0.08881025 0.3375287 -0.3470553
0000b0 38 25 14 3e a1 8c d5 3b d7 0a 6d 3e 9a f7 83 3d
       0.14467323 0.0065170084 0.23148666 0.064437106
0000c0 ca 00 94 be 63 37 6c 3e 1b 13 51 3e 77 55 f4 ba
       -0.28906852 0.23068003 0.20417444 -0.0018641193
0000d0 8b 81 87 3e 74 75 2c 3e 0e f8 9a 3e 78 ab 77 be
       0.2646602 0.1684168 0.30267376 -0.24186504
0000e0 9e 44 92 be 22 91 35 3c 8b 01 1c 3e fb ce d7 3d
       -0.28567976 0.011081966 0.15234964 0.10537525
0000f0 75 6e 97 be ed b4 09 be bd 3c 32 3e 55 fd b2 bb
       -0.2957646 -0.13447924 0.17405982 -0.0054623284
000100 05 df e6 bc d9 86 4f be 1e 52 15 3e 27 5d 53 3d
       -0.028182516 -0.20266284 0.14582106 0.05160251
000110 13 f5 16 3d 7e ab 22 3e 59 bf 6e be c0 ad 1a 3e
       0.036854815 0.15885732 -0.23315181 0.15105343
000120 68 8b 51 3e 80 f9 9c 3e bc 35 78 be 36 fe 93 be
       0.20463336 0.30659103 -0.24239248 -0.28904885
000130 45 f1 7c 3e 37 a9 aa 3d 79 ea 21 3e 34 54 9c be
       0.24701412 0.083330564 0.158121 -0.30532992
000140 0d 7f ba bd cb b9 3f be 6e 68 98 bd d2 10 6a bc
       -0.09106264 -0.18723218 -0.074417934 -0.014286237
000150 21 25 93 be 12 81 50 be 4b 1f 38 3e 53 9c e2 bd
       -0.28739265 -0.20361736 0.17980687 -0.11064973
000160 f0 6b 3a 3e cf d1 4a 3e 3a d5 a0 3e 2b 85 8c 3d
       0.18205237 0.19806598 0.3141268 0.06861337
000170 c8 16 81 3d f9 59 be 3d 78 fd 95 3e 93 24 8a be
       0.06303173 0.09294505 0.29294944 -0.2698103
000180 bd e1 9c be 7e 71 d3 be 70 24 7b bc 9d a5 48 be
       -0.30640975 -0.41297525 -0.015328512 -0.19594426
000190 3f 74 17 be 7c c1 86 bd 8c 9a a0 bc 84 46 4e 3e
       -0.14790438 -0.06579873 -0.019604944 0.20144087
0001a0 7f 3f 22 3e 20 09 d0 bd 8e 10 04 be b0 d0 92 bd
       0.15844534 -0.101579905 -0.1289694 -0.0716871
0001b0 94 d6 b4 bb 30 eb 59 3e c1 9e 5a 3e 08 76 74 be
       -0.005518744 0.21281123 0.21349622 -0.2387315
0001c0 b2 56 73 bd 35 c1 42 be 40 be f3 3d cf 54 9c 3e
       -0.05940885 -0.19019015 0.11901522 0.30533454
0001d0 b8 6c 3f be cc 0a 99 3e 2f 8c 12 3d d0 98 d4 3c
       -0.18693817 0.2989105 0.03577822 0.025951773
0001e0 88 42 fc bc d1 43 3a be 2e 0a 46 be 38 1b 15 3d
       -0.030793443 -0.18189932 -0.1933982 0.03640291
0001f0 b6 f7 89 be a1 74 1d 3c 5d 3e 4d 3e fb ba 5f bd
       -0.269468 0.009610326 0.20043321 -0.054621678
000200 3a 2a e6 bd 58 0f 40 3e 35 1b 86 3e ef 9e f1 bc
       -0.11238523 0.18755853 0.26192632 -0.02949473
000210 2c 7a 9a 3e 1b 13 74 3e ff 47 d3 bd 6a a7 5e be
       0.30171335 0.23835413 -0.103164665 -0.21743551
000220 9a 93 86 be 4f 1c 9f 3d b6 84 1f be 3c 79 de 3d
       -0.26284486 0.07769071 -0.15577969 0.10862967
000230 4b ac 12 3e ba 80 41 3e 63 5f 7f be cf 7b 28 3e
       0.14323537 0.18896762 -0.24938731 0.16453479
000240 4d 17 bd bd ef 82 c7 be 53 fb e1 3d 3d f5 f8 bc
       -0.0923296 -0.38967082 0.110342644 -0.030390376
000250 b4 11 07 3e 73 8f 4a be 2c c2 f0 3b 7c 61 1a 3e
       0.13190347 -0.19781284 0.007347366 0.1507625
000260 86 e0 97 3e 22 9a 84 be bb c1 80 3e fb 3f 0a 3b
       0.29663485 -0.25898844 0.25147805 0.0021095264
000270 79 51 fb bd a9 8f 8c 3c ff 90 1b be 05 cb c5 3d
       -0.12271399 0.017158346 -0.1519203 0.096578635
000280 54 16 8f 3b 2f b2 03 be c6 21 96 3e 44 08 99 bd
       0.0043666754 -0.1286094 0.29322642 -0.0747228
000290 43 e3 22 be bf 38 71 3e eb 84 2d be 16 56 5d 3e
       -0.15907006 0.23556803 -0.16945235 0.2161487
0002a0 58 d4 cf bd 1b fc 1a be 99 9e 0a 3e 44 8c 39 3d
       -0.10147923 -0.15135233 0.13537063 0.045299783
0002b0 ce 33 85 be 87 a6 94 3e 38 d0 45 3e 37 55 02 be
       -0.26016086 0.290333 0.1931771 -0.1272782
0002c0 93 66 4e 3e fa 07 2b 3e 54 37 12 3e 35 38 77 be
       0.20156316 0.16702262 0.14278919 -0.24142535
0002d0 2c e4 11 3e 0c 93 65 3e 07 79 c8 3d c0 b6 a8 3d
       0.14247197 0.22419375 0.09788709 0.08237982
0002e0 4d 34 73 3e 4a a5 a6 be 1b 41 0a be ea 72 88 3c
       0.2375042 -0.3254798 -0.13501398 0.016656358
0002f0 bf 2a 13 bd 2b cd 82 be 07 fe 02 3e 15 bb 94 be
       -0.035929438 -0.25547156 0.12792216 -0.29048982
000300 e2 58 c8 bd bc 81 1e be 1f bb 42 3e 79 b0 68 3e
       -0.09782578 -0.15479177 0.19016694 0.22723569
000310 f1 b7 1e be e3 3b 3a be 3c 4e 74 3d b8 5e d7 3d
       -0.15499856 -0.18186907 0.059644923 0.10516113
000320 83 c9 bc be fe 04 7e 3d a9 44 20 3e 47 23 d2 bd
       -0.3687249 0.06201648 0.15651192 -0.10260635
000330 03 76 38 be 88 3e cf 3c c7 e1 a8 3e 6a ba b1 3b
       -0.18013768 0.025298372 0.32984754 0.0054238336
000340 0e e5 e3 3b a0 39 df bd 0b 2e 61 3e 9f 7e 8a 3e
       0.0069547957 -0.10899663 0.2199022 0.2704973
000350 dc 98 36 3c b8 96 cf be 9c 7d c1 bd fe 6f 5e be
       0.011144843 -0.40544677 -0.09447786 -0.21722409
000360 99 56 93 3d 11 9a e0 bd 07 fe 66 be b2 bd 21 3e
       0.071942516 -0.10966886 -0.22557841 0.1579502
000370 6d 32 0d 3d d4 5e e3 bd a3 b3 02 be 24 75 4a be
       0.034471918 -0.111020714 -0.12763838 -0.19771248
000380 57 27 d0 bc 73 c9 91 3e ae 23 3b 3d 1a 58 19 be
       -0.025409384 0.28474006 0.045688324 -0.14975014
000390 1b ca 39 be 64 a1 90 bd 53 2b 90 3d ea fb 92 bd
       -0.18143503 -0.07062033 0.070395134 -0.07176955
0003a0 8f a5 8d bb 7c 0d 02 be 3b dc af bd ec 55 9b be
       -0.0043227146 -0.12700456 -0.085869275 -0.3033899
0003b0 07 5e fa bd d2 52 29 be 4e aa 96 3e 9f 28 2e 3e
       -0.122249655 -0.165355 0.29426807 0.17007683
0003c0 a7 94 c6 3c b3 a4 1e be 72 c6 70 3e 61 7c cc bd
       0.024240805 -0.15492515 0.23513201 -0.09984661
0003d0 ca e5 18 bd 80 78 a6 3c 1e 7c 15 3e 51 54 f0 bd
       -0.03732852 0.02032113 0.14598128 -0.11734832
0003e0 be ad 1c be a5 4d 8c be c1 bf 67 be 57 d0 28 3e
       -0.15300652 -0.27402988 -0.22631742 0.16485725
0003f0 36 e4 29 3d a6 a6 46 be 4d 15 70 be e4 46 91 3e
       0.041477405 -0.19399509 -0.23445626 0.28374398

StatefulPartitionedCall/model/time_distributed_1/dense_1/BiasAdd/ReadVariableOp:0 f4 [32]
000000 bb 9e 19 bd 51 56 be bc 1e d1 2c bc 41 cb 52 3d
       -0.037504893 -0.023234518 -0.010547904 0.05146337
000010 bf e5 27 bc 0f 4d c1 bc ec e6 92 3c 5d 69 3d 3d
       -0.010247647 -0.023596315 0.017932378 0.04624306
000020 d7 2f 10 3c ff 51 d5 3c a9 a0 dc bb 53 bd 9a 3c
       0.008800468 0.026040075 -0.0067330194 0.018889105
000030 bc 08 54 3d 94 eb 25 3d 65 c4 d0 3b 9e bd 0f b9
       0.051766142 0.040507868 0.0063710683 -0.0001370818
000040 5a ba f1 3b 04 1a 17 3d a9 fa 47 3d c6 a0 0b 3d
       0.007376951 0.036890045 0.048823033 0.034088872
000050 bc e6 3e 3c 35 a4 2c 3d 84 8a 37 3a a9 8b a1 3c
       0.011651691 0.042148788 0.00070015364 0.019719915
000060 02 44 0a 3d 68 de 29 b6 17 6d 02 3d bc 0f 92 bc
       0.033756264 -2.531242e-06 0.031842317 -0.017829768
000070 69 29 62 3d 26 cc 59 3a bf e2 b0 3c dd af aa 3b
       0.055215273 0.00083083136 0.021592496 0.005208953

StatefulPartitionedCall/model/time_distributed/dense/MatMul/ReadVariableOp:0 f4 [79, 32]
000000 df 5f 57 be e4 a6 64 bd 59 21 27 3d 28 a7 47 3e
       -0.21032666 -0.05582322 0.040803287 0.19497359
000010 61 9d ab 3e 60 0d 4a 3e 79 a0 5d 3d a1 f9 03 be
       0.33518508 0.19731665 0.054108117 -0.12888195
000020 7a 83 a8 bd 4e 5e 2b 3e d3 a1 81 3e 11 1a be 3d
       -0.08228202 0.16735193 0.25318775 0.092823155
000030 99 72 9d bd 9a 52 b2 3c a3 5d 8f 3d be 03 24 bd
       -0.076878734 0.021767903 0.07000282 -0.04004263
000040 cd 84 3e bd 03 23 5f 3e 47 64 0f 3c fd ab 0f 3d
       -0.046513367 0.217907 0.008751935 0.03507613
000050 24 79 bf bb 4c 2e 23 3e bc f4 2d bd 3f fe af 3d
       -0.0058432985 0.1593563 -0.042469725 0.085934155
000060 da ac 0d 3e 27 14 6a 3c 03 cc 51 3d 1a 2f 0b be
       0.13835469 0.014287031 0.05121995 -0.13592187
000070 0e db 6b 3e 9e cf 64 3e 62 07 ed 3c 87 7f de 3d
       0.23032781 0.22344825 0.028934184 0.10864168
000080 1a 7c 3f 3d 72 80 c5 3c 13 ee 3f bd d4 c6 e2 bc
       0.04674921 0.024109099 -0.046857905 -0.0276827
000090 58 c2 a5 3e 88 d6 e7 bd 80 f0 08 3e 71 59 2c be
       0.32374835 -0.113202155 0.13372993 -0.16830994
0000a0 97 3c 93 be 80 ed 42 3e c1 56 1a 3e c4 23 1b 3d
       -0.28757164 0.19035912 0.15072156 0.037875906
0000b0 7d 6e 26 be bf bd 1b 3c b9 78 4e 3e 90 d7 3e 3e
       -0.16253085 0.009505688 0.2016324 0.18636918
0000c0 96 86 9b 3c 2f 21 d9 3d 91 eb 8d be 87 0d 3a bd
       0.018985074 0.106020324 -0.27718785 -0.045423057
0000d0 91 3c 0f 3e 13 7f 91 be 46 fb 97 3e 61 92 fa bd
       0.13987948 -0.28417262 0.29683894 -0.12234951
0000e0 cd 7c 73 3c ff 92 2b 3e b7 25 37 3e 5d e8 34 3e
       0.014861298 0.16755293 0.17885481 0.17666765
0000f0 2e db b1 3d 47 ce be 3e 25 27 a2 bc 9b 42 2c be
       0.08684383 0.37266752 -0.019794056 -0.16822283
000100 e4 e7 e1 3d 6b 71 72 be 2c c9 78 be ba 0e c6 be
       0.11030558 -0.23676078 -0.24295491 -0.3868311
000110 68 32 b2 3d 73 7e 0a 3e a8 ef 0e 3e 6d 1c 40 be
       0.087010205 0.13524799 0.13958609 -0.18760844
000120 1c e1 ae 3d 46 8c 00 3b 77 f4 62 be b7 c6 64 be
       0.0853903 0.001961486 -0.22163568 -0.22341429
000130 44 3a 02 be 22 13 04 be af f8 f0 3d ea bb 60 3d
       -0.12717539 -0.12897924 0.11766183 0.05486671
000140 f0 06 96 bd 00 c8 e6 bd cc b6 5d be 01 c6 5a 3e
       -0.07325542 -0.11268616 -0.21651763 0.21364595
000150 da 22 18 be 29 ef 87 3c 44 54 74 be 3d 88 38 bd
       -0.14857045 0.016593533 -0.2386027 -0.045051802
000160 b2 d9 4c be 4c a7 19 be e7 ee 16 3e d0 16 2f 3e
       -0.20004919 -0.15005225 0.14739572 0.17098546
000170 e9 c4 65 3e 40 00 40 3e c3 59 40 be 62 f8 fe 3d
       0.22438397 0.18750095 -0.18784241 0.12449719
000180 e4 7c 2b 3e cb 0f a0 3d 73 34 18 3e da 80 f0 3d
       0.1674686 0.07815512 0.14863758 0.117433265
000190 5a b9 c2 3d d9 53 06 3e a1 6f 1d 3e 4e 3e 3f 3e
       0.09508009 0.13117923 0.15374614 0.18676111
0001a0 e4 e7 76 3e fc 2a 8b be 2b 6b 2b 3d 0c 1d df 3d
       0.24111897 -0.27181232 0.04185025 0.10894212
0001b0 d4 7a 19 3e f2 5a 6b be 96 43 ba bd 71 cd d3 3d
       0.14988261 -0.22983912 -0.09094922 0.10341919
0001c0 a4 33 76 be 69 c7 cb 3c 71 32 98 3c fc 09 78 bd
       -0.24043137 0.02487536 0.01857874 -0.060556397
0001d0 c0 1c f0 bd c5 8d f7 3d e0 b5 9b bd 7b 33 aa 3d
       -0.117242336 0.12087587 -0.07603049 0.083106
0001e0 f1 fa ba 3d 72 16 94 3e f1 69 8c bc 7b 5c 6a be
       0.091298945 0.28923374 -0.01714036 -0.22886841
0001f0 97 56 b4 bd c3 86 9d bd b0 eb 45 be 61 b3 67 3d
       -0.08805578 -0.076917194 -0.19328189 0.056567553
000200 17 79 93 be 32 40 95 3d 27 8a e3 bc 8c 6a 1e 3e
       -0.28803322 0.07287635 -0.027775837 0.15470332
000210 28 89 02 bd 31 8c 0f 3e 36 f6 3b 3c 09 7f 0b 3d
       -0.031869084 0.14018323 0.0114722755 0.034056697
000220 92 8f 86 3d d0 d8 4b 3d 53 10 05 be aa e0 af 3c
       0.065703526 0.049767315 -0.12994508 0.021469433
000230 e4 40 5b bd 79 55 dc 3d 52 34 7a 3d 0d 4f 89 3c
       -0.05352868 0.1075849 0.061085053 0.016761327
000240 68 1e 4a 3e c4 c7 4b be b8 c6 1d 3e 69 59 05 3e
       0.19738162 -0.19900423 0.15407836 0.13022389
000250 53 ba 2c be 24 cb 2c bd 02 1c 43 be 36 10 dc 3b
       -0.16867952 -0.042185917 -0.19053653 0.0067157997
000260 95 af 4a 3e e2 e3 11 3e 2c fa 2a 3e 5b d1 a5 bd
       0.19793542 0.14247087 0.16696995 -0.08096572
000270 08 2e 82 bc 11 8e d1 bd 3c f9 1d 3e ce ed 54 3e
       -0.01589109 -0.10232175 0.15427107 0.2079384
000280 3b 82 92 3e b6 46 67 3e be 08 59 3e eb 6d 55 bd
       0.28614983 0.22585568 0.21194741 -0.05210678
000290 7d c7 46 be bf c7 16 3d a4 5d 28 3c 90 56 05 3d
       -0.19412036 0.036811586 0.010276232 0.032553256
0002a0 57 59 80 3d d6 b7 06 be 26 19 96 3e db fa 88 3e
       0.0626704 -0.13156065 0.29316062 0.26753888
0002b0 13 75 0e 3e de 2a a9 bd 2e bf 60 be 43 f9 56 3e
       0.13911848 -0.082601294 -0.2194793 0.20993523
0002c0 57 4f 52 3e ee ef 58 3e f1 bd 1f be a0 5d 96 3d
       0.20538078 0.21185276 -0.155998 0.07342076
0002d0 8d 42 b4 3c a0 dc ac bd a8 1a 80 3e 53 5b 1d be
       0.02200439 -0.084405184 0.25020337 -0.15366869
0002e0 29 67 07 3c 2f e5 da 3c 0e 11 11 3e 95 b6 fb bd
       0.008264341 0.026720611 0.14166662 -0.12290684
0002f0 8a 0a 3a be 67 dc bc bd 56 1e e3 3d 2a 6d 1e bd
       -0.18168083 -0.09221726 0.110897705 -0.038678326
000300 2f 4e f3 bb 85 f2 33 bd a1 77 43 3e 8c 62 2c be
       -0.0074250917 -0.043932457 0.19088604 -0.16834468
000310 87 28 f8 bd 8f 08 61 3d 08 34 cf bd 2f ec 04 be
       -0.12117105 0.054939803 -0.10117346 -0.12980722
000320 2c 40 d5 bd 22 47 04 3e a2 a9 f0 bd 53 9c 63 be
       -0.104126304 0.1291776 -0.11751105 -0.22227602
000330 64 0d 25 3e b4 c3 95 3d bf 3e e7 3c 76 55 5f be
       0.1611839 0.07312718 0.028228162 -0.21809945
000340 cc 14 b8 bd c1 de d9 bd 40 97 b4 3d 58 76 2f be
       -0.08988342 -0.1063819 0.08817911 -0.17134988
000350 52 e9 32 be 88 1f 6f be 9d 20 02 3e d5 9f 44 be
       -0.17471817 -0.23351872 0.12707753 -0.19201596
000360 f5 f1 3c 3e a1 ad 22 bd 1c e6 30 be ce 15 f0 bd
       0.18451674 -0.039716367 -0.1727528 -0.11722909
000370 24 c4 53 be 46 66 dc bd 8f b7 4f 3e 71 90 98 bd
       -0.2068029 -0.107616946 0.20284866 -0.07449425
000380 bf f9 40 bd 3d 06 fd 3d af 58 4d be 08 af 02 ba
       -0.047113176 0.123547055 -0.20053361 -0.0004985188
000390 26 06 77 be b3 0a 3f 3b 67 91 c1 bd 3a aa 4c be
       -0.24123439 0.0029150664 -0.094515614 -0.19986811
0003a0 e3 fb 49 be 7f 89 5f bd d3 a3 fc bc 97 ba b1 b8
       -0.19724993 -0.054574486 -0.030839836 -8.474773e-05
0003b0 6d 7c 19 be 67 6b 66 be fa 13 33 3d d6 86 8e bc
       -0.14988871 -0.22501908 0.043720223 -0.01739828
0003c0 50 a6 97 be 1b 8a f2 bd 95 4e eb bd 88 56 d6 3d
       -0.29619074 -0.11842748 -0.11489598 0.10465723
0003d0 c1 c8 2f be 61 07 ca 3c 08 a1 4e 3e 94 aa 1f be
       -0.17166425 0.024661722 0.20178616 -0.15592414
0003e0 98 0c 80 3e 40 e5 be bd 61 ff 79 be 1f 5b 62 be
       0.25009608 -0.0932107 -0.24413826 -0.22105072
0003f0 62 76 4a be dd d8 09 3e df 6d 60 bd 82 c7 68 3d
       -0.19771722 0.13461633 -0.05479228 0.05683089

StatefulPartitionedCall/model/time_distributed/dense/BiasAdd/ReadVariableOp:0 f4 [32]
000000 cf 21 46 bc c6 d1 35 bd 87 a3 2b 3d 83 dd 65 3d
       -0.012093022 -0.04438951 0.041904 0.056119453
000010 8e 7b a6 3d af 5b 4a 3d 58 26 5f 3d ed 15 3b bd
       0.08129035 0.049403843 0.054479927 -0.045675207
000020 01 15 15 bd 0b 24 99 3d 7f 8c 46 3d a7 ef f4 3a
       -0.036396984 0.07477578 0.04847383 0.0018687145
000030 a3 83 63 3c ae b8 26 3d 09 e4 a5 3c 9d 74 26 bd
       0.013886365 0.040703468 0.020250337 -0.040638555
000040 bc 89 02 bc 0a 95 43 bd 9e 50 09 bd d1 64 0f 3d
       -0.007967409 -0.047749557 -0.03352415 0.035008255
000050 58 cf ef 3c 83 41 1b 3d 22 54 c1 bb a4 6b 81 3d
       0.029273674 0.037904274 -0.005899922 0.06319359
000060 f6 ef 6d bd 2d ed 82 bc e2 91 88 bc 3e a5 d1 3c
       -0.058090173 -0.015982235 -0.016671125 0.025591489
000070 d6 91 2a 3d 43 cc 87 3d ed b2 b5 3c 37 4b 5a 3d
       0.041642986 0.06630757 0.022180045 0.053294387

Func/StatefulPartitionedCall/model/bidirectional_1/forward_gru_2/PartitionedCall/input/_46:0 f4 [15, 45]
000000 20 15 86 3d da fe 9a 3c bb 42 14 bd d1 c6 6d be
       0.06546998 0.01892035 -0.03619645 -0.23220374
000010 6c db f5 3d b0 c6 03 3e 7b 9e 33 bf 62 1a 0d be
       0.12004742 0.12868762 -0.70163697 -0.13779595
000020 23 9f 63 3e 5b c2 25 3e 04 3d 5f be a3 f7 13 3e
       0.22228675 0.16187422 -0.2180062 0.14449935
000030 b5 ec c1 be 05 cd 23 bc c7 60 7a be 73 30 d1 be
       -0.37875906 -0.009997611 -0.2445098 -0.40857276
000040 6a 3e 01 be 7a 38 28 be 2e db c0 3e f6 26 b2 3e
       -0.12621465 -0.16427794 0.3766722 0.3479535
000050 98 c6 62 3d 13 90 0c be dc 8d 15 bf 96 8a 4d 3e
       0.055365175 -0.13726835 -0.58419585 0.20072398
000060 84 53 e7 be 8b 9c b0 be 37 54 31 3e 8e 03 7d bb
       -0.45180905 -0.34494433 0.17317282 -0.0038606855
000070 e8 f3 b3 bd 88 e5 e7 be 30 47 04 be e0 07 18 be
       -0.08786756 -0.45292306 -0.12917781 -0.14846754
000080 62 27 0c 3d 21 f1 10 be 25 87 8a 3e 9f af 54 3e
       0.034217246 -0.14154483 0.27056232 0.20770119
000090 bd 9a 0c be b6 53 45 be 69 89 1a be 01 bb 0d be
       -0.13730903 -0.19270214 -0.1509148 -0.13840868
0000a0 e5 18 a3 bc cc 71 ad 3e 13 77 c7 3d 2e e4 a4 3e
       -0.019909332 0.33875883 0.097395085 0.32205337
0000b0 11 87 84 be 77 e8 06 be 72 30 0f 3e 1a 3e 0a 3e
       -0.25884297 -0.13174616 0.13983324 0.13500252
0000c0 16 62 02 be 0a 68 02 3d 84 7f 04 bd 01 29 b3 be
       -0.1273273 0.0318375 -0.03234817 -0.3499222
0000d0 d0 42 04 3e b0 c2 8d 3b a6 28 3b be 44 2a 5d be
       0.12916112 0.004326187 -0.18277225 -0.21598154
0000e0 eb 24 14 be bf ab 17 be bd 5c c0 3e d9 02 e7 be
       -0.14467208 -0.1481161 0.37570754 -0.4511936
0000f0 32 98 77 bd 0a 06 01 bf 12 a5 16 bf f6 32 29 3e
       -0.06044788 -0.5039984 -0.5884563 0.16523346
000100 79 84 73 bd 41 ac cc 3e 14 37 85 be b8 15 a6 be
       -0.059452508 0.3997517 -0.26018584 -0.32438445
000110 c2 ef d2 be f7 36 1e bd df ce a2 bd 95 ce 3b 3e
       -0.41198546 -0.038626637 -0.07949614 0.18340524
000120 d3 8a c8 be 0b 7b f7 bd 27 0b 02 bf 4e 3e a8 bd
       -0.39168414 -0.120840155 -0.5079827 -0.08215009
000130 8f ca 38 3c 0d 9e 3d bb 9d 4c 82 3e 99 c0 24 be
       0.0112787625 -0.0028933317 0.25449076 -0.16089095
000140 11 ce 90 3d 91 f1 28 3d 55 59 4b be 48 0c bd 3d
       0.07070554 0.041246 -0.19858296 0.09230858
000150 35 0b 98 bd 5c 64 e0 3b 14 60 53 3e 53 8f 03 3e
       -0.074240126 0.0068479013 0.2064212 0.12847643
000160 99 86 bb be fd 4d a3 3d 23 2c 46 3f 36 8a 4f 3e
       -0.36626127 0.079738595 0.774111 0.20267567
000170 49 89 f1 bd 19 78 b2 be b4 70 29 3e 2a ca 80 be
       -0.11793763 -0.34857252 0.16546899 -0.2515424
000180 e5 d5 78 3e ef 8c 46 be 5f a4 2e 3f ef dc be 3e
       0.24300344 -0.193897 0.6821956 0.37277934
000190 5c 91 7f 3e 49 70 96 be 9e 26 83 3e c4 f6 56 be
       0.24957794 -0.29382542 0.256154 -0.20992571
0001a0 33 1d eb 3e 65 93 af bc 84 3a 53 be da 8d db 3d
       0.45920715 -0.021432588 -0.2062779 0.107204154
0001b0 cf 8c 90 be 6c 67 b6 3d 0d a6 f7 bd 7f 68 bc 3e
       -0.28232428 0.08906445 -0.120922185 0.36798474
0001c0 bf c6 5f 3e 2e 71 c8 3c c6 96 4a 3c 10 f7 12 3e
       0.2185316 0.02446803 0.012365049 0.1435206
0001d0 41 2e 7a 3c 0f 1e 58 be 04 00 8a be 7f fe aa 3e
       0.015269817 -0.21105216 -0.26953137 0.3339729
0001e0 97 b3 f7 bb f4 18 08 3e c1 91 c1 3e 19 c2 9b be
       -0.0075592506 0.13290769 0.37806514 -0.30421522
0001f0 dd ca ba bd 31 5e 20 3d 74 7b 8b be eb 1e 6f bd
       -0.09120724 0.039152328 -0.27242625 -0.058379095
000200 e9 26 8f be 1e 1e 6d bd 5f 77 2a 3d c6 71 d7 3d
       -0.27959374 -0.05789005 0.041617747 0.105197474
000210 00 f8 34 3d 26 96 18 be ad 0e ed bd 88 e9 10 bd
       0.044181824 -0.14901027 -0.11575065 -0.035378963
000220 33 3e 37 3e 26 a6 ae bd 64 3b 99 3e 1a cb 70 be
       0.17894821 -0.08527784 0.29928124 -0.23514977
000230 8d 89 4c be 4f 78 db bc 4a 49 59 3e 8d db 8c 3d
       -0.19974346 -0.026790766 0.21219364 0.068778135
000240 4b 7e a1 be 8f fb 08 bc 5f 71 77 be 19 3b 72 be
       -0.31541666 -0.0083607575 -0.24164341 -0.23655356
000250 fa ab 05 3e 2e ce 07 3f 27 42 0a bf 63 e1 bd 3c
       0.13053885 0.5304898 -0.5400719 0.023178762
000260 db cb 1a be c0 2f d0 be 3f 06 20 3c 90 71 c7 be
       -0.15116827 -0.4066143 0.009767114 -0.3895383
000270 0a ea f2 be f2 46 85 3d 05 ea fb 3b 7e 99 7c 3e
       -0.47444183 0.06507672 0.0076878094 0.24667928
000280 72 69 32 be d7 4b d2 3e ff 25 bc bd f9 4c 06 3e
       -0.17423037 0.41073486 -0.09186935 0.131153
000290 b9 4c 5a be 15 87 59 be 34 73 4c 3d 3c 1f 2c be
       -0.2131833 -0.21242936 0.049914554 -0.1680879
0002a0 c5 d8 3d be 7b ff 22 3c 53 ad 5f be fc f8 67 3e
       -0.18539722 0.009948607 -0.21843462 0.22653574
0002b0 14 7d 93 bc 90 00 c1 3e 31 ed cb 3c e9 92 16 be
       -0.018003978 0.37695742 0.024893375 -0.1470448
0002c0 1a 8f d6 bd 39 7c 2a be 80 70 d2 3d 34 04 6a bd
       -0.10476513 -0.1664895 0.10275364 -0.057132915
0002d0 bc f0 45 be f2 5d 3f 3d 59 6d f9 bd aa dd 84 3e
       -0.19330114 0.046720453 -0.121790595 0.25950366
0002e0 a1 2f a6 bd cb 78 7d 3d 0f 9a fe bd 26 98 80 3e
       -0.08114553 0.061882775 -0.12431728 0.2511608
0002f0 cd 8a c7 3d 89 3a 24 be e1 04 38 bd 23 fa fa bb
       0.09743271 -0.16037954 -0.044926528 -0.007659213
000300 76 51 7a 3e 0a d8 13 3e a5 95 f2 bd 14 81 d2 bd
       0.24445137 0.14437881 -0.11844949 -0.10278526
000310 c9 4f 9f 3e 4d c5 bd be f8 08 37 bd 79 c2 83 3e
       0.3111556 -0.3706459 -0.044686288 0.25734308
000320 07 6a 9b 3e 3c 57 5c 3e 75 ec 1d be 57 c7 3b bd
       0.3035433 0.21517652 -0.15422232 -0.045844402
000330 82 6d 11 be 6f b4 0f 3e 77 8a 40 be 0e 68 04 3e
       -0.1420193 0.14033674 -0.1880282 0.12930319
000340 6a 7f 94 3c c0 38 8e 3e 23 81 31 3e 53 0f cf 3d
       0.018127162 0.27777672 0.17334418 0.10110345
000350 fa 3b 58 3e 2a f9 5d 3e 71 cf a5 3d ba c6 c1 be
       0.21116629 0.2167708 0.08096207 -0.3784693
000360 b7 2a af bd 36 7a 24 be e0 6a 55 3e 6e ae 16 3e
       -0.08553069 -0.16062245 0.20841551 0.14714977
000370 e5 41 b3 bd c4 9a 41 3e a6 1d 47 3e 5f 54 3b 3e
       -0.08752803 0.18906695 0.19444904 0.18293904
000380 7c b3 b2 bd 0d 51 55 bd f7 74 e9 bd c3 25 cf be
       -0.0872564 -0.05207925 -0.113992624 -0.40458497
000390 18 67 8f 3d d6 d1 23 3f 19 24 e6 bc 19 8c e1 3e
       0.070020854 0.6399206 -0.028093385 0.440522
0003a0 a7 af 22 3d 3f 79 b8 3e cb a3 47 be d4 20 2e 3e
       0.039718296 0.36030003 -0.19496076 0.1700471
0003b0 5d 5f 72 bd 91 84 99 3e 9f 35 00 be 83 04 60 3f
       -0.059172977 0.29983953 -0.12520455 0.87506884
0003c0 93 06 b1 3e 99 59 cc 3e 2f be 43 3f 33 0f 61 be
       0.34575328 0.39912108 0.7646207 -0.21978454
0003d0 d2 1a dd be 72 de fc be 3f ea fd 3c 04 1d 41 3e
       -0.43184525 -0.49388462 0.030995486 0.18858725
0003e0 ea 1b 62 3d 8a 4b b0 3b b3 12 09 3f 08 56 49 be
       0.055202402 0.0053800987 0.5354416 -0.19661725
0003f0 75 f6 cf be 85 22 30 3e b0 c1 11 3e 57 58 29 3e
       -0.4061772 0.17200668 0.14234042 0.16537605

Func/StatefulPartitionedCall/model/bidirectional_1/forward_gru_2/PartitionedCall/input/_45:0 f4 [30, 45]
000000 2c b9 c1 3e 5c cb 9f 3d b9 e1 d0 3d aa 16 99 3d
       0.37836587 0.078024596 0.10199303 0.07475026
000010 e8 03 bb bd 5f 8f 5e bc 5f 5a 01 3e d0 17 ed bd
       -0.091316044 -0.013583987 0.1263213 -0.115768075
000020 19 e7 fd bd b4 36 e8 be c7 9b 77 be 27 c3 5e 3c
       -0.12397594 -0.45354235 -0.24180518 0.013596333
000030 4d c6 15 3d 46 6e a6 bd 4b 58 0d be f8 7d 3c be
       0.036566067 -0.08126502 -0.13803212 -0.18407428
000040 6d 94 db 3d cf 7e 38 3e 60 b0 e7 3c 75 2f a0 be
       0.10721669 0.18017124 0.028282344 -0.31286207
000050 6e 92 00 be 17 9b 90 bd 64 3e c3 bd e7 00 91 bd
       -0.12555858 -0.07060831 -0.095333844 -0.0708025
000060 5c 45 1d 3e 2b ce 88 3d 83 4b d0 bd 77 10 cd bd
       0.1535849 0.066799484 -0.10170653 -0.10012906
000070 01 54 4c 3e 63 30 d4 3e 6a 40 f5 3d 97 8a f6 3d
       0.1995392 0.41443166 0.11975177 0.12038153
000080 3d 5c 65 be cb 5c 10 3e 83 1c 75 3e ef eb 76 bd
       -0.22398467 0.14097898 0.23936658 -0.060283598
000090 11 f1 e1 bd c4 f2 a5 3e 45 61 fb bd 7c 00 d7 bd
       -0.11032308 0.32411778 -0.12274412 -0.10498139
0000a0 40 e8 9c 3d c9 e2 43 3e 87 21 70 be 9c 4a 14 3e
       0.07661486 0.1912948 -0.2345029 0.14481586
0000b0 15 c7 69 be b5 07 55 bb ad 0e bd 3e b8 2a 6c be
       -0.2282985 -0.0032505814 0.3692526 -0.23063171
0000c0 da 7f 32 bb aa 78 ff bc be de 1c 3e ff d1 81 be
       -0.002723685 -0.031185467 0.15319344 -0.25355527
0000d0 d7 d8 20 be d5 28 e6 3d 76 57 8e 3d db df 12 be
       -0.15707718 0.11238257 0.069502756 -0.14343207
0000e0 91 9b 57 be b7 6a 78 3d dd 27 29 3c 32 81 b5 3e
       -0.21055438 0.060648646 0.010324446 0.3545013
0000f0 1b 14 8e 3d 7e 78 6a be eb 49 96 be 8a 32 56 be
       0.069374286 -0.22897527 -0.2935327 -0.20917717
000100 84 3e 93 bd f7 31 1b bd 00 10 89 be 3f 28 01 3e
       -0.07189658 -0.037889447 -0.2677002 0.12613009
000110 5d 62 1a be 29 48 7f bd db fd eb bd ec bc ce bd
       -0.15076585 -0.062324677 -0.115230285 -0.10094628
000120 54 1f 93 be ef 71 8b 3e 06 ea 71 bd ea 1a 8c 3c
       -0.2873484 0.27235362 -0.059061073 0.017102677
000130 33 21 e0 3d 72 00 89 3e 7a c2 81 3e 7b c6 6d bd
       0.10943832 0.26758152 0.25343686 -0.058050614
000140 48 9a 78 3e bb dc 5e 3e fa 2a 3e bd 80 13 8b 3b
       0.24277604 0.2176389 -0.046427704 0.004244268
000150 f5 e8 b0 3d 0f ac e8 bd 33 47 18 be 08 a4 6a 3e
       0.08638183 -0.113609426 -0.1487091 0.22914135
000160 48 2d 29 be 82 ac 15 be 26 96 8c be fb 0d 9a 3e
       -0.1652118 -0.14616588 -0.27458304 0.3008879
000170 55 13 57 3e 66 7c d9 bd 9f a7 b6 be 87 90 2a 3e
       0.21003468 -0.1061943 -0.3567476 0.16656695
000180 35 c7 e1 bd 0e d7 0c 3e c3 18 f4 be 7e c7 35 3f
       -0.11024324 0.13753912 -0.47675142 0.71007526
000190 7b 4c 92 3e 6c db f5 bd 02 62 ad be 3b 9e c1 bd
       0.28573975 -0.12004742 -0.33863837 -0.09454008
0001a0 9e f9 e7 bc 36 56 d5 be 2f cf 65 3e 35 b3 de be
       -0.028317269 -0.41667336 0.22442316 -0.434961
0001b0 cb e3 ae 3d ff ed 65 be f1 ef 4e be c2 76 cd be
       0.08539542 -0.2245407 -0.20208718 -0.40129668
0001c0 df b8 b5 be ec 61 74 3e 43 5c db be 7b 74 8a 3b
       -0.35492608 0.23865479 -0.42843828 0.0042253113
0001d0 00 97 96 3d 2a e3 85 be cf e3 d3 3e c2 aa 54 3e
       0.0735302 -0.26149875 0.41384742 0.20768264
0001e0 53 e9 84 be 9b 4c 5e be 47 bd 4e 3e 73 0e ec bd
       -0.25959262 -0.2170891 0.20189391 -0.115261935
0001f0 2b d5 b0 3d 9f 08 58 be 7f 01 63 ba bc 7a 14 be
       0.086344086 -0.21097039 -0.0008659586 -0.14499944
000200 1f b7 cf bd 79 6b 1c 3d 85 b1 98 3e 37 3f 2c 3e
       -0.101423495 0.03818843 0.29822937 0.1682099
000210 00 79 43 bc d9 1b f3 bd c5 ad 3d be 0c 22 a3 3e
       -0.011930704 -0.11870546 -0.18523319 0.31861913
000220 13 4c c2 3e 3d 50 b8 be 6a 6c 72 be da 09 88 be
       0.37948665 -0.35998717 -0.23674169 -0.26570016
000230 a6 90 ed 3e 07 3d 04 3f a8 b8 cf 3d 3a 8a 0a bf
       0.4639942 0.5165562 0.10142642 -0.54117167
000240 e8 cf da 3e 33 b9 95 3e 3c 85 b8 bd 77 64 57 be
       0.42736745 0.29242858 -0.090097874 -0.21034418
000250 02 77 48 3e d6 cd 11 3e c2 13 de be ad 98 62 3e
       0.19576648 0.14238676 -0.4337445 0.22128554
000260 b4 15 98 be 51 69 84 be ea 1d 9a 3e f5 60 44 3e
       -0.29704058 -0.258616 0.30100948 0.19177611
000270 55 d2 17 3a 46 e3 91 3e 35 8e 27 3f e8 19 be 3e
       0.0005791535 0.28493708 0.65451366 0.3712914
000280 58 9b dd bd 84 3f 89 be 0c 95 b8 3d 0d 2a 05 3f
       -0.10820645 -0.2680627 0.090128034 0.5201729
000290 e6 c6 28 bd 76 8e f2 bc 9e 09 16 3e 5f 81 77 be
       -0.04120531 -0.029608946 0.14652106 -0.24170445
0002a0 e8 80 2b 3e f6 32 4d be b1 e2 6f bc ff f1 9e bd
       0.16748393 -0.20038971 -0.01464145 -0.07761001
0002b0 2f 18 83 3e 31 b0 61 3e f5 c8 0c 3d 15 e2 85 3d
       0.25604388 0.22039868 0.034371335 0.06537262
0002c0 ff 9a 8f 3c 89 66 b6 3d c9 65 f4 bd 16 1d be bb
       0.017529963 0.08906276 -0.119334765 -0.005801807
0002d0 9e 40 54 be 7a 54 82 3e f1 b7 f3 3d 77 99 ac 3e
       -0.20727775 0.25455076 0.119003184 0.33710834
0002e0 86 c7 ab bc 16 15 1c 3e ec 82 5d 3d d2 ae 3f 3d
       -0.020969164 0.15242419 0.054079935 0.04679758
0002f0 f0 1b 11 3d c6 5d c6 be f0 29 3e 3e fb d4 52 bd
       0.035427034 -0.38743418 0.18570685 -0.051472645
000300 39 d9 6f be 7e 30 9a be ed ee 7c 3e d3 45 ca bd
       -0.23422708 -0.30115122 0.24700518 -0.09876599
000310 a0 81 04 be b4 64 4c 3e 6e b6 3b 3e 2c f2 f2 3d
       -0.12940073 0.1996029 0.1833131 0.11862597
000320 bd c9 85 3e 8c 44 94 be 6f d0 e6 3d 82 4d eb bd
       0.26130477 -0.28958547 0.11270224 -0.11489393
000330 39 9a fc 3d 5f e4 10 be 8f b9 38 be b0 11 80 3e
       0.12334103 -0.14149617 -0.18039535 0.25013494
000340 8a 85 98 3d a4 44 dc bd 76 60 59 3c 57 72 0b bd
       0.074473456 -0.1075528 0.013267627 -0.03404459
000350 99 74 e9 bc 97 7d 2d 3d aa 77 c7 3c b2 3a 7e 3e
       -0.02849798 0.0423561 0.024349052 0.24827078
000360 da 85 4b 3e 8e 58 40 3e 3b ab 97 3c 20 5b f2 bd
       0.19875279 0.18783781 0.018514266 -0.11833787
000370 8b c2 9e be 2d 16 5a 3e f1 1f cb 3d e7 6f 04 be
       -0.310078 0.21297522 0.09918202 -0.12933312
000380 9f 3c 0f be 3f 04 08 3e 3e 8c e3 3a 48 ff e6 be
       -0.13987969 0.1328287 0.0017360521 -0.4511664
000390 e2 35 8b bb 31 7f a4 3e be 4d d2 be 28 91 10 bf
       -0.0042483667 0.3212829 -0.41074938 -0.5647149
0003a0 bd ca 72 be f0 1e 6d 3d 72 3a 0b bf ca 64 e0 be
       -0.23710151 0.057890832 -0.54386055 -0.43826896
0003b0 c4 d0 24 bf 9a a4 a4 be 1c 80 de 3e bd 65 82 bd
       -0.6438105 -0.3215683 0.43457115 -0.06367061
0003c0 ed 24 06 3f 8f 93 65 bd 3f dc 67 be 96 fd 32 3e
       0.52400094 -0.056048926 -0.22642611 0.17479548
0003d0 3a 45 bf bd f0 51 d4 3e ea ec 26 3e f8 d0 22 3e
       -0.09339376 0.41468763 0.16301313 0.15900028
0003e0 15 1c 6b be 6d d1 dc 3e 40 32 34 be 75 b9 72 be
       -0.22959931 0.4312853 -0.17597294 -0.23703559
0003f0 0a 43 8f 3e aa 95 97 be 80 20 99 3e c4 a6 60 3d
       0.27980834 -0.29606372 0.29907608 0.05484654

Func/StatefulPartitionedCall/model/bidirectional_1/backward_gru_3/PartitionedCall/input/_56:0 f4 [15, 45]
000000 23 b2 28 3e 9c 20 ee bd 1a ec 11 3f e7 2b 2c be
       0.16474204 -0.116273135 0.5700089 -0.16813622
000010 ea 8f 01 be 4f 06 bd 3e 61 5c 4c 3d 3b 9f ec bd
       -0.12652555 0.36918876 0.049892787 -0.11553808
000020 fa 6b 96 bd 8b a2 14 3f 03 3e 20 3d 6c 9c 3a be
       -0.07344814 0.5806052 0.03912164 -0.18223733
000030 40 6b eb 3d d5 61 1d 3d 66 a8 b0 bd 4d a5 84 3e
       0.11495066 0.038423378 -0.086258695 0.25907364
000040 06 62 af 3e f9 5a d7 bd cc c0 93 3e 11 51 99 3d
       0.34254473 -0.105153985 0.2885803 0.07486165
000050 5d e4 2d 3e 3a 74 e5 3d 58 08 26 3e 0c 63 15 3e
       0.16981645 0.11203809 0.1621412 0.14588565
000060 98 b4 64 3e 86 9f d0 be 9c 0a 7b bc f4 c4 ae bd
       0.22334516 -0.40746707 -0.015322354 -0.085336596
000070 b6 b4 77 be 30 22 1f be f5 2c 09 3e 11 73 54 3d
       -0.2419003 -0.15540385 0.13396056 0.05186755
000080 67 3a 7c be 65 5f 23 be a1 84 fe 3d 1e 77 b2 3d
       -0.24631654 -0.15954359 0.12427641 0.08714126
000090 00 fc bc bc 37 05 b2 3d 20 05 90 be 97 f7 96 3c
       -0.023069382 0.08692401 -0.2812891 0.018428607
0000a0 10 93 08 bd ed 82 1b 3e 92 5a 8d 3e 15 00 fe 3d
       -0.033343375 0.15186663 0.27608162 0.124023594
0000b0 6f 79 14 3c 8a e9 0d bd 1c 02 a8 bd 5d 81 93 3d
       0.009062155 -0.03464655 -0.08203527 0.072024085
0000c0 dd 6c 6b bd 5e 56 4c bc d4 d0 60 bc b1 c7 05 bf
       -0.057476867 -0.012471763 -0.0137216635 -0.5225783
0000d0 d9 e5 b9 be a2 1e 78 be 9f 02 99 3e a1 53 3d be
       -0.36308172 -0.24230435 0.29884812 -0.18488933
0000e0 3f e5 5b 3d d6 a6 4e 3d c3 c8 66 3d 98 1d 4b be
       0.053685423 0.050452076 0.056343805 -0.19835508
0000f0 eb a1 70 bd 3b 4a 96 3d 0b 6d e0 3e a3 d6 54 bd
       -0.058748167 0.07338377 0.43833193 -0.051962506
000100 49 b7 97 3d cc 7b 46 be 87 09 7e bd 22 7e c0 3d
       0.07408006 -0.19383162 -0.062020805 0.09399058
000110 53 be 72 bd 1b 60 65 bd 46 d8 e6 3d 2f 9e ee be
       -0.05926354 -0.055999856 0.1127172 -0.4660506
000120 a8 c0 51 3d 7c f7 8e bd c2 0c 88 3d 49 f2 05 3c
       0.051209122 -0.06980798 0.06643058 0.008175441
000130 11 48 18 be 2c dd 4e bd 23 47 55 3e 95 6d 32 be
       -0.14871241 -0.050503895 0.20827918 -0.17424615
000140 68 80 2a 3e c0 16 86 bd fe 2c fd 3d 19 49 2b 3e
       0.16650546 -0.06547308 0.12362097 0.16727103
000150 64 d4 8f be 72 5f 13 3d b4 19 2c bd b9 95 29 bd
       -0.2809173 0.035979696 -0.0420167 -0.041402552
000160 e9 b7 68 be e6 cd 8b bd e1 3a 4a be 69 af cf be
       -0.22726406 -0.068263814 -0.19749023 -0.40563515
000170 64 6f 72 3e bf 0e 1d bd 83 d0 9c 3e e5 f5 72 3e
       0.23675305 -0.03834414 0.30627832 0.23726614
000180 ee 9e c2 3c bd ee d3 3d 4b 5a 56 3d 96 cd 12 39
       0.023757424 0.1034827 0.052332204 0.00014000232
000190 3e 51 b5 be d5 25 12 3e 68 d9 11 3f eb 93 84 be
       -0.35413545 0.14272244 0.5697236 -0.25894102
0001a0 e7 13 09 be 82 50 d2 be 7d 0b 82 be ba 15 3a 3f
       -0.13386498 -0.41077048 -0.2539939 0.726894
0001b0 ba 05 d6 3d ff 5b a9 be 58 46 5f be 65 f4 1e 3e
       0.10450311 -0.33078 -0.21804178 0.15522917
0001c0 33 f3 0c be 1c 1b 20 bd 1a f9 b4 be bc 53 a7 be
       -0.13764648 -0.039088354 -0.353463 -0.32681072
0001d0 b2 f8 1a be 38 6e 13 be 14 83 29 3e a9 8f 25 3e
       -0.15133932 -0.14397514 0.16553909 0.16168083
0001e0 d5 84 2c be 3f ea e3 3d 96 fe aa be 1b 60 6a bd
       -0.16847546 0.11128663 -0.3339736 -0.05722056
0001f0 50 9d 2b 3c d6 e1 24 be b0 23 22 3c 01 3c e9 bd
       0.010474518 -0.16101775 0.009896204 -0.11388398
000200 34 39 30 3e 67 c5 50 3e e3 ee ad 3d 2d b2 ed 3c
       0.17209321 0.20387803 0.0849283 0.029015625
000210 dc c8 0e 3e b4 fb 89 3e 1c 34 b8 be b0 71 98 be
       0.1394381 0.26949847 -0.35977256 -0.29774237
000220 1b a1 3c bd 2f 64 37 be 49 93 b8 bc 1b 52 93 be
       -0.04605208 -0.17909311 -0.022531169 -0.2877358
000230 11 9d 2c 3d 88 20 a7 bd 40 48 37 3e 7b 21 62 3d
       0.042141978 -0.08160502 0.17898655 0.05520771
000240 c3 8c 32 bf 9d 70 13 be f1 95 bd 3e 82 ab ed 3e
       -0.69746035 -0.14398427 0.3702846 0.46419913
000250 ef 86 db bd d0 1b 7d 3e 78 cb eb 3e a8 13 e8 3d
       -0.10719096 0.24717641 0.46053672 0.11331874
000260 33 fd 0e bd c5 e4 76 bd 42 e2 df bd c1 79 b4 3c
       -0.03490944 -0.060276765 -0.10931827 0.022030713
000270 2b 26 91 3e 6b f1 6c 3c fc 2e 3f 3e 17 ed 9a be
       0.28349432 0.014461855 0.18670267 -0.3025901
000280 90 47 ce 3d 5f 0a 92 be 8d 60 30 bc 6c b5 20 3e
       0.10072243 -0.28523538 -0.010765207 0.15694207
000290 dc dd 96 be 81 85 4e 3e 79 6e 18 3d 37 e4 55 bb
       -0.2946614 0.20168115 0.03721473 -0.0032637247
0002a0 5a 37 8d be 4f 22 a9 3c b4 22 f4 3d a7 f9 04 be
       -0.27581292 0.020646242 0.119206816 -0.1298586
0002b0 34 65 ab 3d 6d d9 13 bd 09 34 c3 3d 43 4d bc be
       0.08368912 -0.036096025 0.09531409 -0.36777696
0002c0 90 8c 1a 3e b2 d8 46 3d 84 f3 16 3c cc bd 0f 3e
       0.15092683 0.0485465 0.009213332 0.14037246
0002d0 ed 06 83 3e e1 76 b3 3e 82 ad 57 3e 40 08 e0 be
       0.2559122 0.35051635 0.21062282 -0.43756294
0002e0 d4 57 ba 3e 5a c8 3a be 45 4b fa bc 48 a2 e5 bd
       0.36395133 -0.1824049 -0.03055347 -0.11212593
0002f0 23 7f f0 bd 77 7d 61 be ac a6 8a bd e7 90 23 3f
       -0.117429994 -0.22020517 -0.067700714 0.6389298
000300 04 95 94 3d 47 e5 df 3a dd c5 08 be 40 2d 89 bd
       0.07254985 0.001708188 -0.13356729 -0.06698084
000310 56 5b 03 be ee 73 c9 bd 5c 15 86 3d 7c c9 7f bd
       -0.1282781 -0.09836565 0.06547043 -0.06244801
000320 c8 7c 25 bf 62 27 f7 be 0b f0 b5 3d 73 dd 16 3c
       -0.64643526 -0.48272234 0.08883675 0.009208071
000330 c7 ff 25 be 60 dd 0d bf 6e 96 09 bf 95 16 85 be
       -0.16210853 -0.55415916 -0.5374516 -0.2599379
000340 f2 e7 50 3e 3a ee 2d 3d 6f 9a 8d bd 07 80 03 3f
       0.2040098 0.04246352 -0.069142215 0.5136723
000350 1f b5 37 bd c8 c2 cf bd fb 22 2b be 1c 2e 57 3e
       -0.044850465 -0.101445735 -0.16712563 0.21013683
000360 93 e6 b7 3d ec c7 03 3d 16 27 04 be 48 83 eb bd
       0.089795254 0.032173082 -0.12905535 -0.11499649
000370 22 a5 e1 3d e3 2f 56 3c 1e 4b f8 3c f6 06 65 3e
       0.11017825 0.0130729405 0.030309256 0.22365937
000380 cc 92 23 3e 01 e1 a2 be 59 35 3e 3e 7b 95 43 be
       0.15973967 -0.3181229 0.18575038 -0.19099991
000390 a4 a9 83 3e 13 68 86 3e 67 c3 75 bf be 31 a7 3e
       0.25715363 0.26251277 -0.96001285 0.32655138
0003a0 6b 73 9d 3d 4c 64 1b bf fd e0 71 bd 3c 90 e7 be
       0.0768803 -0.60699916 -0.059052456 -0.4522723
0003b0 38 84 7a bd bf 16 0e be d5 7b b1 3e 9c 80 65 3e
       -0.06116125 -0.13875864 0.3466479 0.22412342
0003c0 79 63 5c bd 22 a5 e2 bd 72 05 82 be 6b 25 ee 3d
       -0.053805802 -0.11066653 -0.2539478 0.11628231
0003d0 0e 13 aa bd 70 03 eb bd a9 b7 ca be 0a 17 1f 3f
       -0.08304416 -0.11475265 -0.39593247 0.6214453
0003e0 5c 8e a4 3d 44 9c 8a bd 94 7b 47 be 06 7c e4 be
       0.080349654 -0.067680866 -0.19480735 -0.44625872
0003f0 85 02 32 bb b1 b8 4d 3d 68 88 d3 bc 20 56 a3 be
       -0.0027162146 0.050224964 -0.02582188 -0.31901646
