model_sleep_bl.onnx (onnx, 116557 bytes, 17 tensors)

functional_1/time_distributed_2_1/Cast_7/ReadVariableOp:0 f4 [16, 1]
0	0xbd59b2ee	-0.053149156
1	0xbeea1cce	-0.457251
2	0x3ed77e64	0.42088616
3	0xbeb105b8	-0.34574676
4	0x3d00ce8f	0.03144699
5	0xbdfa29a1	-0.12214971
6	0xbd4deacc	-0.050272748
7	0xbee2ec79	-0.4432104
8	0xbdbddbf7	-0.092704706
9	0xbd9d877d	-0.07691858
10	0xbeeac12c	-0.45850503
11	0xbe8c1bd2	-0.27364975
12	0xbdf2fd66	-0.11864738
13	0xbea8cb75	-0.32967725
14	0x3ec75627	0.38932917
15	0xbdb8201e	-0.08990501

functional_1/time_distributed_1_2/Cast_7/ReadVariableOp:0 f4 [16, 16]
0	0xbfa42fab	-1.2827047
1	0xbf88491d	-1.0647312
2	0xbf437f07	-0.76365703
3	0x3e01922f	0.12653421
4	0xbf6db791	-0.92858225
5	0xbe00c39e	-0.12574622
6	0xbf045473	-0.5169136
7	0xbefa23c8	-0.48855424
8	0xbdc1af37	-0.09457248
9	0x3e4f93d8	0.20271242
10	0xbe095df1	-0.13414742
11	0xbee9fc63	-0.45700368
12	0xbe9f8369	-0.31154945
13	0x3eca23f1	0.39480546
14	0xbd45fded	-0.048337866
15	0x3e776dd0	0.24162984
16	0x3d10cc9b	0.035351377
17	0x3ea774ec	0.32706392
18	0xbda76f09	-0.08175475
19	0x3b35d6ec	0.0027746512
20	0xbe3f03d6	-0.18653807
21	0xbef8fd3e	-0.48630708
22	0x3cb6576c	0.022258483
23	0xbf616a6d	-0.8805302
24	0xbea6d0aa	-0.32581073
25	0x3dba5a92	0.09099306
26	0x3d7afc6f	0.061275896
27	0x3ef52e07	0.4788668
28	0x3ec1b25f	0.378314
29	0x3f01ac34	0.50653386
30	0x3e62585f	0.22104023
31	0x3d25dff8	0.040496796
32	0xbfe44680	-1.7834015
33	0xbfdb829a	-1.7149231
34	0xbf00ecd4	-0.5036137
35	0x3e44a43d	0.19203277
36	0xbf826ecf	-1.0190066
37	0xbfba3a99	-1.4549133
38	0xbebb5bb5	-0.36593404
39	0x3e66cdf8	0.22539508
40	0xbe450163	-0.1923881
41	0xbd90162e	-0.070354804
42	0x3ccdf6ec	0.025142156
43	0x3ed56805	0.41680923
44	0xc0a7ea39	-5.2473416
45	0xbe8ca801	-0.27471927
46	0x3ecae5cc	0.39628446
47	0x3eb20bb1	0.34774545
48	0xbd85ffe8	-0.06542951
49	0x3ef5fd03	0.48044595
50	0x3e854423	0.26028547
51	0xbe8aee61	-0.27134994
52	0xbe4b857d	-0.1987514
53	0x3e44a967	0.19205247
54	0xbf1382ad	-0.5762127
55	0xbeff682a	-0.49884158
56	0xbec0afe9	-0.3763421
57	0xbf1b335b	-0.6062524
58	0x3e71a57b	0.23598282
59	0x3e79baed	0.24387713
60	0xbd54c2e9	-0.051943693
61	0x3e808e90	0.25108767
62	0xbed22be8	-0.41049123
63	0x3ef9a8cc	0.48761594
64	0x3e7e5244	0.2483607
65	0xbf31f84f	-0.69519514
66	0x3da29cc0	0.07940054
67	0xbea0be20	-0.31395054
68	0xbdf2cbcf	-0.1185528
69	0xc09affa5	-4.8437066
70	0x3e875026	0.26428336
71	0xbf13b87f	-0.57703394
72	0xbd23dad8	-0.040003628
73	0xbf925871	-1.143324
74	0x3d0c5673	0.034262132
75	0x3f2c55b6	0.67318285
76	0xbef7118d	-0.48255578
77	0xbeee377a	-0.465267
78	0xbe548e60	-0.20757437
79	0x3bb09a34	0.005389476
80	0xbf3db0e7	-0.74098057
81	0x3f40db90	0.75335026
82	0x3e92cb99	0.28670958
83	0x3df0cb3a	0.117575124
84	0x3f238f10	0.6389017
85	0xbf0f359a	-0.55941164
86	0x3f11806f	0.568366
87	0xc00d8b70	-2.2116356
88	0x3e1147f0	0.14187598
89	0x3e67201a	0.2257084
90	0xbc7730b8	-0.015087299
91	0x3d5a4538	0.05328867
92	0x3fa95840	1.3230057
93	0x3f186bb3	0.59539336
94	0xbe84b2ca	-0.25917655
95	0xbdbe423f	-0.09289979
96	0x3e177241	0.14789678
97	0xbe7232d7	-0.23652206
98	0x3df097e3	0.1174772
99	0xbd2cc841	-0.042183165
100	0xbe25c24e	-0.16187403
101	0x3e3b5758	0.18295038
102	0xbddb596f	-0.107104175
103	0x3f28c816	0.65930307
104	0x3e107d6a	0.14110342
105	0x3e799e95	0.243769
106	0xbe8e7fc3	-0.2783185
107	0xbf4f3406	-0.80938756
108	0xbe42b35b	-0.19013731
109	0x3f30d9f2	0.6908256
110	0xbd83d452	-0.06436981
111	0x3d1d4e25	0.038404603
112	0xbe986f2e	-0.29772323
113	0xbe114f6b	-0.14190452
114	0x3da2fd42	0.07958461
115	0xbeaa1653	-0.33220157
116	0xbe2f00ea	-0.17090192
117	0xbe607903	-0.21921162
118	0xbeb0a70e	-0.34502453
119	0xbfa35780	-1.2761078
120	0xbe114512	-0.14186504
121	0x3d6a9aa5	0.057276387
122	0xbe0e84e6	-0.13917884
123	0xbf0e627e	-0.5561904
124	0x3e02e84f	0.12783931
125	0x3ecf4648	0.40483308
126	0x3da3d95d	0.08000443
127	0xbe4241d9	-0.18970431
128	0xbeab3050	-0.33435297
129	0xbcc3c4b0	-0.023897499
130	0xbf49a88a	-0.78772795
131	0xbec06e24	-0.3758403
132	0xbf909c85	-1.1297766
133	0xbefc5877	-0.49286243
134	0xbf42f9cc	-0.7616241
135	0x3d0f74fe	0.03502368
136	0x3e4a6be8	0.19767725
137	0xbf1bfe69	-0.60935074
138	0xbe253038	-0.16131675
139	0x3cfa08f7	0.030521853
140	0xbf5f67d4	-0.87267804
141	0xbe531082	-0.20611766
142	0x3ec68da5	0.3877994
143	0x3ecfea8c	0.40608633
144	0xbec45714	-0.38347685
145	0xbed3808a	-0.41309005
146	0x3ede53dd	0.43423358
147	0x3e2f0b46	0.17094144
148	0x3ea9c7a9	0.3316014
149	0xbd1bf519	-0.03807554
150	0x3cc7a2fe	0.024369713
151	0xbe89fe21	-0.26951697
152	0xbdcb5fac	-0.09930357
153	0x3e88c7ca	0.26714927
154	0x3ca599df	0.020214973
155	0xbd821fc9	-0.06353719
156	0xbd9a7a59	-0.07542867
157	0xbf449418	-0.76788473
158	0x3ca2d132	0.019875143
159	0x3d84d491	0.06485856
160	0x3e70ad8e	0.23503706
161	0x3e94a0f8	0.2902906
162	0x3e233204	0.15937048
163	0xbf02e9c0	-0.51137924
164	0x3e1bd1f9	0.15216817
165	0x3ef552b0	0.47914648
166	0x3e8926fa	0.2678755
167	0xbe30db5e	-0.17271182
168	0xbe80dd23	-0.25168714
169	0xbea7598a	-0.326855
170	0xbeeedfb6	-0.46655053
171	0xbe9fbee5	-0.31200328
172	0x3e28725e	0.16449878
173	0xbf1f11c8	-0.6213651
174	0xbef18d3f	-0.47178075
175	0xbd5c53e7	-0.053790953
176	0x3e89b75a	0.268977
177	0xbd7ee41a	-0.062229253
178	0x3e44f3d9	0.19233645
179	0x3e16f4da	0.14741841
180	0xbe7ea6c7	-0.24868308
181	0xbc79538b	-0.015217672
182	0xbebac0ea	-0.36475307
183	0xbee6b20c	-0.45057714
184	0x3eac6686	0.3367197
185	0x3e875666	0.26433104
186	0xbeb3442e	-0.35012954
187	0xbf391beb	-0.72308224
188	0x3d439ba8	0.047755867
189	0xbe007692	-0.12545231
190	0xbec1f78d	-0.3788418
191	0x3d97d1b3	0.07413044
192	0xbf6f4cc8	-0.93476534
193	0x3da48537	0.08033221
194	0xbe9bf336	-0.30458993
195	0x3da8364c	0.08213481
196	0xbe65041b	-0.22364847
197	0xbf635fe3	-0.88818187
198	0x3e88243a	0.2659014
199	0x3f3a448d	0.7276085
200	0xbcd78761	-0.02630967
201	0xbf49fff1	-0.7890616
202	0x3d6ed3e1	0.058307532
203	0xbff76f54	-1.933085
204	0x3e36c160	0.17847204
205	0x3f3238d3	0.69617957
206	0xbecbec08	-0.39828515
207	0xbe3493eb	-0.17634551
208	0x3e82ada1	0.25523093
209	0x3c250b42	0.010073485
210	0x3e5e220c	0.21692675
211	0xbd9cdbb8	-0.076590955
212	0xbe1fac49	-0.15593065
213	0xbe594b07	-0.21220027
214	0x3bc09c86	0.005878034
215	0xbec0d560	-0.37662792
216	0xbe893209	-0.26795986
217	0xbeccf264	-0.4002868
218	0xbe3d073b	-0.1845979
219	0x3e35d8ef	0.17758535
220	0x3f050e71	0.5197516
221	0x3ea55300	0.32289886
222	0x3ce59892	0.028026853
223	0x3e9445f1	0.2895961
224	0x3db1b1fe	0.086765274
225	0xbfc6d2cb	-1.5533079
226	0x3d3a75fa	0.045522667
227	0xbdf9a1c3	-0.12189057
228	0xbea1a81a	-0.31573564
229	0xbe9dd7e4	-0.30828774
230	0x3e0b4b7d	0.13603015
231	0x3ee50519	0.44730452
232	0xbe4f935e	-0.2027106
233	0xbf482f38	-0.7819705
234	0xbe9c568f	-0.3053479
235	0xbe202c08	-0.15641797
236	0x3e6d6f57	0.23187004
237	0xbd986073	-0.07440271
238	0xbee79856	-0.4523341
239	0x3e5d4434	0.21608049
240	0xbe745514	-0.2386058
241	0x3f7e9943	0.9945261
242	0x3f538a9e	0.8263339
243	0xbe37445e	-0.17897174
244	0x3f18d23b	0.59695786
245	0x4005282b	2.0805767
246	0x3f65a090	0.89698124
247	0x3f463743	0.7742807
248	0x3e1416f7	0.14461885
249	0x3c6f81cb	0.014618347
250	0x3ec2289d	0.3792161
251	0xbe0bbce5	-0.13646276
252	0xc0198322	-2.3986287
253	0xbe6728b2	-0.22574118
254	0xbe535cac	-0.2064082
255	0xbf5c7743	-0.8611948

functional_1/time_distributed_1_2/BiasAdd_6/ReadVariableOp:0 f4 [16]
0	0x3e1d9c3d	0.15391631
1	0xbe81e165	-0.25367275
2	0x3e6fa8e0	0.23404264
3	0xbdf17439	-0.11789746
4	0x3e31a575	0.17348273
5	0xbdd45b3e	-0.103689656
6	0x3d4c6ab0	0.049906433
7	0xbd380c75	-0.044933755
8	0xbc72ddc5	-0.014823382
9	0xbdc54850	-0.09632933
10	0xbdc05ece	-0.093930826
11	0xbe15a588	-0.14613926
12	0xbe83458d	-0.25639
13	0xbb98193f	-0.0046416814
14	0xbddb9ac8	-0.107228816
15	0xbeb06c0a	-0.34457427

functional_1/time_distributed_1/Cast_3/ReadVariableOp:0 f4 [69, 16]
0	0x3f0c6b22	0.5485097
1	0xbe6a2e8a	-0.22869316
2	0xbf7718f3	-0.96522444
3	0x3f0f4c0c	0.55975413
4	0xbf462631	-0.77402025
5	0xbe0706da	-0.13186207
6	0x3e59a340	0.21253681
7	0xbeb3b324	-0.3509761
8	0x3f32054b	0.69539326
9	0x3ea176a3	0.31535825
10	0xbdce9f49	-0.10088975
11	0xbf22f368	-0.6365266
12	0xbe7a67ce	-0.24453661
13	0x3dd868e5	0.10566882
14	0xbe27cd9e	-0.1638703
15	0xbf512873	-0.81702346
16	0x3e8c28c8	0.27374864
17	0x3e70f8fe	0.23532483
18	0x3f0df80b	0.5545661
19	0xbdaaab96	-0.08333509
20	0xbeabdf82	-0.3356896
21	0x3ed49741	0.41521648
22	0xbdbd8278	-0.092534006
23	0xbc31e8cf	-0.010858729
24	0x3d93847c	0.07203004
25	0xbeaaa2d2	-0.33327347
26	0x3dc333b7	0.09531348
27	0x3e6916a9	0.2276255
28	0x3f6c9266	0.92410886
29	0x3d4d4a19	0.050119493
30	0x3ed5aef6	0.41735047
31	0x3f5f1239	0.8713718
32	0xbf139e80	-0.57663727
33	0x3eb96815	0.3621222
34	0xbd1411eb	-0.0361499
35	0xbe299fb9	-0.16564836
36	0x3e6d8db3	0.23198585
37	0xbc997942	-0.018734578
38	0xbd6b0918	-0.05738172
39	0x3e866168	0.2624619
40	0xbef19391	-0.47182897
41	0x3e8faa12	0.2805944
42	0x3d1374bf	0.03600001
43	0x39e00fd8	0.00042736414
44	0xbdee7d08	-0.116449416
45	0x3f00dd24	0.50337434
46	0x3e9d8807	0.30767843
47	0xbe4d0dc8	-0.20024788
48	0xbef40b8d	-0.47665063
49	0xbdf3fc01	-0.119133
50	0x3f9c0214	1.2188134
51	0xbf011f34	-0.5043824
52	0xbec39ef6	-0.38207215
53	0xbf834839	-1.0256416
54	0xbec3587b	-0.38153443
55	0xbe20f838	-0.15719688
56	0xbf998dac	-1.199636
57	0xbe5dcb05	-0.21659477
58	0xbf05b528	-0.5222955
59	0xbde23bc1	-0.110465534
60	0xbea0a467	-0.3137543
61	0x3f145080	0.57935333
62	0x3d1984c2	0.037480123
63	0xbf867b8e	-1.0506456
64	0xbe09f8b7	-0.13473783
65	0xbbd0e83f	-0.006375342
66	0x3f2b1c03	0.6683962
67	0x3e3b5233	0.18293075
68	0x3f4856af	0.7825727
69	0x3fe23fcb	1.7675718
70	0xbd50e0c0	-0.05099559
71	0xbe832186	-0.25611514
72	0x3f9fc93f	1.248329
73	0xbec177ee	-0.37786812
74	0xbeb9b083	-0.3626748
75	0x3e004661	0.12526847
76	0xbf25c5e3	-0.64755076
77	0xbdea0f21	-0.11428667
78	0xbe657388	-0.22407353
79	0x3f37fc31	0.7186919
80	0xbf12489d	-0.5714205
81	0x3e8f1780	0.27947617
82	0x4010e435	2.2639287
83	0xbe8f802c	-0.28027475
84	0x3ec4e294	0.38454115
85	0xbe9fba60	-0.3119688
86	0xbe677111	-0.22601725
87	0x3dfc22e2	0.12311341
88	0x3e02b81d	0.12765546
89	0xbdbef0c8	-0.09323269
90	0xbeed54e5	-0.46353832
91	0xbad8c15f	-0.0016537121
92	0xbe7b071a	-0.24514428
93	0x3ef885af	0.48539492
94	0x3ebda9ef	0.37043712
95	0xbe8c9e15	-0.27464357
96	0x3ed9546e	0.42447227
97	0x3edc29e6	0.43000716
98	0xbebc7288	-0.3680613
99	0x3eb25ea7	0.3483784
100	0xbced44b4	-0.028963424
101	0xbf73f952	-0.9530231
102	0xbdeec6ec	-0.11659035
103	0xbd12464b	-0.035711568
104	0xbe98b35e	-0.29824346
105	0x3ec50a66	0.38484496
106	0x3e729781	0.23690607
107	0xbe1ee757	-0.15517937
108	0xbe33c9ed	-0.17557497
109	0x3e82231e	0.25417417
110	0x3e8d941a	0.27652055
111	0xbe9e0be0	-0.30868435
112	0xbe0c5f2b	-0.13708179
113	0x3efeeaf5	0.49788633
114	0x3e99f59a	0.30070192
115	0xbcc84481	-0.024446728
116	0xbeaded70	-0.33970213
117	0x3e215412	0.15754727
118	0xbe8b5819	-0.2721565
119	0xbc7d7071	-0.015468703
120	0xbccd2bac	-0.025045238
121	0xbe00484d	-0.1252758
122	0x3e08e63b	0.13369076
123	0x3c661e83	0.0140453605
124	0x3f2f45fd	0.6846617
125	0x3d108f3e	0.035292856
126	0x3cfa8415	0.03058056
127	0x3e98d4ee	0.29849952
128	0x3f1f77a0	0.6229191
129	0x3db3d7f2	0.08781423
130	0xbf54dd34	-0.8315003
131	0x3e484897	0.19558941
132	0x3e2c24fb	0.16810982
133	0x3ebc5494	0.36783278
134	0xbe6e319f	-0.23261116
135	0xbd1e3394	-0.038623407
136	0x3c8dbd30	0.017302126
137	0x3d2a0868	0.041511923
138	0xbe43c51d	-0.19118161
139	0xbe455b40	-0.1927309
140	0xbf5b7679	-0.8572765
141	0x3ee7dbaf	0.45284793
142	0xbe0e595d	-0.13901277
143	0xbe99bd07	-0.3002703
144	0x3e0c8be7	0.13725244
145	0xbe2e30d1	-0.1701081
146	0x3cf8f193	0.030388629
147	0xbea72a8e	-0.32649654
148	0xbea37bfc	-0.3193053
149	0xbf0f4239	-0.5596042
150	0xbe691324	-0.22761208
151	0x3c926c38	0.017873868
152	0x3ed18dc3	0.40928468
153	0xbddd9cdf	-0.108209364
154	0xbd5ba302	-0.053622253
155	0x3dbc998b	0.092089735
156	0x3ee14d09	0.44004086
157	0x3e45cfc1	0.19317533
158	0x3e8738d7	0.26410553
159	0xbe9bb06d	-0.3040804
160	0x3ed603ba	0.41799718
161	0xbdaf4823	-0.08558681
162	0xbdc3a1c2	-0.09552337
163	0x3e8d63a9	0.27615097
164	0x3e7ad546	0.2449542
165	0x3ddc64a0	0.1076138
166	0x3e03a537	0.12855993
167	0x3e878e40	0.26475716
168	0x3dc2e4df	0.0951631
169	0x3dd04837	0.10170024
170	0x3e7d72c8	0.24750817
171	0x3e3f9e52	0.18712738
172	0x3d2ef07b	0.04270981
173	0xbe8cb994	-0.27485335
174	0xbe4eb06a	-0.20184484
175	0xbeda555d	-0.42643252
176	0xbdede188	-0.11615282
177	0x3e99d51f	0.3004541
178	0xbe91b86d	-0.28461018
179	0x3e81e8fb	0.25373062
180	0xbe1dab48	-0.1539737
181	0xbd08c261	-0.0333885
182	0x3e620488	0.22072041
183	0x3e3fddf2	0.18737009
184	0xbe4062fc	-0.1878776
185	0x3e76d2fa	0.24103919
186	0x3dc05d0a	0.09392746
187	0x3d6fdf69	0.05856267
188	0x3eb0a809	0.345032
189	0xbcaab6bc	-0.020839088
190	0xbeb9c8d3	-0.3628603
191	0xbeda60c4	-0.4265195
192	0x3f049f65	0.51805717
193	0xbd9b757f	-0.0759077
194	0x3fcd22d5	1.6026255
195	0x3e774851	0.2414868
196	0x3e2ebb87	0.17063724
197	0x3ec3546e	0.38150352
198	0xbea4ce0b	-0.32188448
199	0x3ea17d9f	0.31541154
200	0x3f1603c8	0.5859952
201	0x3d3a42c1	0.045473818
202	0xbd8149d2	-0.06312908
203	0xbe2bdff4	-0.1678465
204	0x3f6867b2	0.90783226
205	0xbd881ea3	-0.066464685
206	0x3e5172d0	0.20453954
207	0xbe7d039a	-0.24708405
208	0xbe2cfeff	-0.16894148
209	0xbddfc40b	-0.10926064
210	0xbe97597c	-0.2956046
211	0x3e70be33	0.23510055
212	0xbd1bb517	-0.038014498
213	0xbe0330f2	-0.1281164
214	0xbdbb76fb	-0.09153553
215	0x3e92b6c5	0.28655067
216	0xbf0cdeea	-0.5502764
217	0x3e979509	0.29605892
218	0x3eb7eee6	0.35924453
219	0x3d965946	0.07341246
220	0xbe73f92b	-0.23825519
221	0x3de574e6	0.11203937
222	0xbee932af	-0.4554648
223	0xbf173fe0	-0.5908184
224	0xbfd160bb	-1.6357645
225	0x3f0fbe67	0.56149906
226	0x3f713502	0.9422151
227	0xbe6f5e87	-0.23375903
228	0xbd69791b	-0.05700026
229	0x3e49f2c5	0.19721515
230	0x3e8fc5db	0.2808064
231	0x3c70b4e5	0.014691566
232	0xbf8210f9	-1.016143
233	0xbe52bec0	-0.20580578
234	0x3e7a080f	0.24417137
235	0x3e8f9c67	0.28049013
236	0x3e82882e	0.25494522
237	0x3e7c45e9	0.24636044
238	0x3e2e8bca	0.17045513
239	0x3fa5a656	1.2941387
240	0xbe7f1bca	-0.24912944
241	0x3f036919	0.5133224
242	0xbdfd1b80	-0.12358761
243	0xbe8f55e4	-0.27995217
244	0xbe213fe2	-0.15747026
245	0xbd9d7adc	-0.07689449
246	0xbe7ec712	-0.24880627
247	0x3e3050f8	0.17218387
248	0xbea53adc	-0.3227147
249	0xbe61e047	-0.22058211
250	0xbe117232	-0.14203718
251	0x3e371815	0.1788028
252	0x3f003825	0.5008567
253	0x3dd7b2f1	0.10532177
254	0xbe14b0f6	-0.1452063
255	0x3e085377	0.1331309

functional_1/time_distributed_1/BiasAdd_1/ReadVariableOp:0 f4 [16]
0	0xbe30000b	-0.17187516
1	0xbd9884d2	-0.074472085
2	0xbd25af6d	-0.040450502
3	0x3d2c2496	0.04202708
4	0x3e16aa20	0.14713335
5	0x3dcbdb96	0.09953992
6	0x3d7cec3f	0.06174874
7	0x3e04d784	0.12972838
8	0xbe5f17eb	-0.21786468
9	0x3e28e406	0.16493234
10	0x3df038c5	0.11729578
11	0x3dd4369b	0.10361978
12	0x3c90b498	0.017664239
13	0x3d584000	0.05279541
14	0x3cc40ffd	0.023933405
15	0xbda08602	-0.0783806

functional_1/bidirectional_1_2/lstm_3_1/lstm_cell_1/add_1/ReadVariableOp/resource:0 f4 [40]
0	0xbde7de48	-0.11321694
1	0x3f422391	0.7583552
2	0x3ec180c9	0.37793568
3	0x3f020238	0.50784636
4	0xbe4759e7	-0.19467889
5	0x3d9a1929	0.0752433
6	0x3eeeb8d9	0.46625403
7	0xbf4e9702	-0.8069917
8	0x3f068566	0.525473
9	0x3d9c0e3f	0.07619905
10	0x3f788515	0.9707807
11	0x3fff3aea	1.9939854
12	0x3fb48d95	1.4105707
13	0x3fae937c	1.3638759
14	0x3fa9596b	1.3230413
15	0x3fccf15c	1.6011157
16	0x3f9198e1	1.137478
17	0x3fabb386	1.3414161
18	0x3fc606e4	1.5470853
19	0x3fa851b8	1.3149939
20	0x3e38056c	0.17970818
21	0x3edde386	0.4333765
22	0xbd7b8b16	-0.06141194
23	0x3f0eea56	0.5582632
24	0xbe1c77de	-0.152801
25	0xbe2140e1	-0.15747406
26	0xbdb6d760	-0.08927798
27	0x3ef9e4c6	0.48807353
28	0x3e0e9444	0.13923746
29	0xbd5e94af	-0.054341014
30	0xbd98f80f	-0.074691884
31	0x3daadf3c	0.0834336
32	0xbd8ddb7a	-0.069266275
33	0x3d9fbd91	0.07799829
34	0x3dddc2de	0.108281836
35	0x3d80cc16	0.06288926
36	0x3d266219	0.040620897
37	0x3da6428b	0.08118161
38	0x3dce8964	0.10084799
39	0xbe585793	-0.21127157

functional_1/bidirectional_1_2/lstm_3_1/lstm_cell_1/Cast_1/ReadVariableOp/resource:0 f4 [10, 40]
0	0xbe33d35d	-0.17561097
1	0x3ef39149	0.4757178
2	0x3f4e8d21	0.80684096
3	0x3e6a0978	0.22855175
4	0x3e72fff9	0.23730458
5	0x3da6614b	0.08124026
6	0x3f14b6d6	0.58091486
7	0xbfa98921	-1.3244973
8	0xbfa92f6f	-1.32176
9	0xbd7199e2	-0.058984645
10	0xbf068230	-0.525424
11	0xbf980895	-1.1877619
12	0x3f1fba71	0.6239386
13	0xbe9fc5a6	-0.3120548
14	0x3ca50c0c	0.020147346
15	0x3f1c07b5	0.6094926
16	0x3e9b39aa	0.30317432
17	0x3ecf6e52	0.40513855
18	0x3f4fe599	0.81209713
19	0x3e4195b5	0.18904765
20	0xbd067add	-0.032832015
21	0xbe47829f	-0.19483422
22	0x3ec441b2	0.38331372
23	0xbe76bcda	-0.24095479
24	0x388b449a	6.6408145e-05
25	0x3dc4e66b	0.09614261
26	0x3f4ccf26	0.80003583
27	0xbed6e994	-0.4197508
28	0xbedbf61f	-0.42961213
29	0xbdc1ac51	-0.09456695
30	0x3ed2b655	0.41154733
31	0xbe9ba07b	-0.30395874
32	0x3d4f7899	0.05065212
33	0xbd68b3fe	-0.05681228
34	0xbf06ddb5	-0.5268205
35	0x3d33cbd3	0.043895554
36	0x3ef672a4	0.4813434
37	0xbe2f681d	-0.1712956
38	0xbe50d9b2	-0.20395544
39	0x3d9a6d09	0.07540328
40	0x3e59419f	0.21216439
41	0x3f37fb08	0.7186742
42	0xbf0bea94	-0.5465481
43	0x3e14a951	0.14517714
44	0x3e938cda	0.288184
45	0x3e97fb28	0.29683805
46	0x3e9a6d2c	0.30161417
47	0x3e604527	0.2190138
48	0xbd7131f0	-0.058885515
49	0xbed12805	-0.40850845
50	0x3ea659fc	0.32490528
51	0x3dc10df8	0.094264925
52	0xbef6e7e8	-0.48223805
53	0xbe0fad9d	-0.14031072
54	0x3d9c3cfc	0.07628819
55	0x3d109235	0.035295684
56	0x3efe8ab8	0.4971521
57	0x3db4f596	0.08835904
58	0x3eaaa101	0.3332596
59	0xbed82e14	-0.42222655
60	0xbf482604	-0.7818301
61	0x3f564aef	0.8370809
62	0xbef8fbb0	-0.48629522
63	0x3e3c0d19	0.18364371
64	0xbbaa1d60	-0.00519149
65	0xbed1e163	-0.4099227
66	0xbead8dfe	-0.33897394
67	0x3f25c33e	0.6475104
68	0x3f24327e	0.64139545
69	0xbe15c969	-0.14627613
70	0xbda3140a	-0.079628065
71	0x3d264c75	0.04060026
72	0xbef0e006	-0.47045916
73	0x3e0a999d	0.13535161
74	0xbe567228	-0.20941985
75	0xbe44352c	-0.19160908
76	0xbd9288d2	-0.07155003
77	0xbc857939	-0.016293155
78	0x3e0fd1d7	0.14044891
79	0x3d5f51b6	0.054521285
80	0x3f9f2a83	1.2434849
81	0x3efe6325	0.49685016
82	0x3f10ffb8	0.56640196
83	0xbf82a7d1	-1.0207464
84	0xbed0376f	-0.40667292
85	0x3ebbb96c	0.36664903
86	0xbea30d12	-0.3184591
87	0x3ef32f3e	0.4749698
88	0x3f5bd07b	0.8586499
89	0xbf9a0fa1	-1.203602
90	0x3f80540c	1.0025649
91	0xbeeeae68	-0.46617436
92	0x3f84c946	1.0373924
93	0xbf1e4fa9	-0.618403
94	0x3f89ee3e	1.0775831
95	0x3ed3b3b8	0.41348052
96	0xbe8a22aa	-0.26979572
97	0x3f3d4279	0.73929554
98	0x3f085d32	0.53267205
99	0xbfc1fbdf	-1.515499
100	0x3ec37566	0.38175505
101	0x3ea55a35	0.32295385
102	0xbe67d79f	-0.22640847
103	0xbf83401f	-1.0253943
104	0x3f6d97ee	0.9280995
105	0xbd369179	-0.044572327
106	0xbf4913fb	-0.7854611
107	0x3f0c04ac	0.5469463
108	0xbd3db7e7	-0.04631796
109	0x3f1605e9	0.5860277
110	0xbea7ca9c	-0.32771766
111	0xbe188fae	-0.1489856
112	0x3f014dd0	0.5050936
113	0x3ec038fb	0.37543473
114	0xbf8e06ff	-1.1095885
115	0x3d115848	0.035484582
116	0xbdacb57e	-0.084330544
117	0xbde3d084	-0.111237556
118	0xbe1e7e88	-0.15477955
119	0xbea1b575	-0.31583753
120	0x3ea2a2e3	0.31764898
121	0x3d90921a	0.07059117
122	0x3eb98788	0.36236215
123	0x3f199486	0.59992254
124	0x3f2b088a	0.66809905
125	0xbd85c351	-0.06531394
126	0x3ca82c84	0.02052904
127	0x3fa7fcd2	1.312403
128	0xbf2af2e2	-0.6677686
129	0xbf80cce5	-1.0062529
130	0x3d3ae0bd	0.045624483
131	0x3f3a3f98	0.72753286
132	0x3e551731	0.20809628
133	0x3ed430b1	0.414434
134	0x3d77ad42	0.060467966
135	0x3ed7e6bb	0.4216822
136	0x3d0ba2fd	0.034090985
137	0x3e8c8df3	0.2745205
138	0xbf06b9b1	-0.5262709
139	0x3dd79d65	0.105280675
140	0x3d9e883c	0.077408284
141	0xbb926394	-0.004467437
142	0x3e5b01c7	0.21387397
143	0x3e1d5577	0.15364634
144	0x3e525b9b	0.20542757
145	0xbe9c8f33	-0.30578002
146	0xbf00afb5	-0.5026811
147	0x3ee6bd23	0.45066175
148	0x3ecf8381	0.40530017
149	0xbd11cbc6	-0.035594724
150	0xbf2295da	-0.63509905
151	0xbe5e9463	-0.21736293
152	0xbf353d97	-0.70797104
153	0xbe9f33bb	-0.31094155
154	0xbe55a95b	-0.20865385
155	0xbd8da578	-0.06916326
156	0x3e6138ec	0.2199437
157	0xbe424024	-0.1896978
158	0xbe03cd33	-0.12871246
159	0xbd1d6c79	-0.038433526
160	0x3faa5b13	1.3309044
161	0x3ca51c99	0.020155238
162	0xbf8208bb	-1.0158914
163	0xc03b2daa	-2.924662
164	0x3d9fc8f4	0.07802001
165	0xbfa1a49d	-1.2628361
166	0xbf6a261d	-0.91464406
167	0x3dc9ba7e	0.09850024
168	0x3fde7aca	1.7381222
169	0xc0423fa0	-3.0351334
170	0x3fa0a3c0	1.2549973
171	0x3fbc9a13	1.473452
172	0xbfb65215	-1.42438
173	0xbfc4b7a5	-1.5368544
174	0xbf2f02f3	-0.68363875
175	0xbdd34c5b	-0.10317298
176	0xbe08d249	-0.13361467
177	0x3f66d6d9	0.9017158
178	0x3e8bfc30	0.2734084
179	0xbd3b08fb	-0.04566286
180	0x3ddccabb	0.10780855
181	0x3f1b3db1	0.6064101
182	0x3e2f1caf	0.17100786
183	0xbf954ed1	-1.1664678
184	0x3e84efa5	0.25964084
185	0x3eb5d9ea	0.35517818
186	0x3f800d7d	1.0004116
187	0xbf7a542d	-0.9778469
188	0x3e991939	0.29902056
189	0x3f21d4a5	0.63215095
190	0x3eb271df	0.34852502
191	0x3f1159c8	0.5677762
192	0xbf1da67c	-0.6158216
193	0x3f48eac4	0.78483224
194	0xbf3e6e79	-0.7438732
195	0x3f149958	0.58046484
196	0xbeafa287	-0.34303686
197	0xbecf47dc	-0.40484512
198	0xbeeacdae	-0.45860046
199	0xbdc592e5	-0.096471585
200	0x3de306ef	0.11085307
201	0x3e524ff0	0.20538306
202	0x3ef11743	0.4708806
203	0x3f072830	0.52795696
204	0xbda71fbb	-0.08160349
205	0xc02f3d67	-2.7381227
206	0x3ee2375c	0.4418286
207	0xbfb61633	-1.4225525
208	0x3f904c39	1.1273261
209	0xbe93c403	-0.28860483
210	0x3e062622	0.13100484
211	0xbde06e69	-0.10958559
212	0xbe80fe19	-0.2519386
213	0x3e900fff	0.28137204
214	0xbe8d8383	-0.27639398
215	0xc000393d	-2.0034935
216	0xbe44122f	-0.19147561
217	0xbe9a8049	-0.30176
218	0x3d884d57	0.066553764
219	0xbe1260c9	-0.14294733
220	0x3e4e8c36	0.20170674
221	0xbc4b4361	-0.012406201
222	0x3e89130d	0.26772347
223	0x3e7581b8	0.23975265
224	0x3e5abc6c	0.2136094
225	0x3f2d557c	0.67708564
226	0x3db01c72	0.085991755
227	0xbe60f01d	-0.21966596
228	0xbf1149cf	-0.5675325
229	0x3e4beb49	0.19913973
230	0xbe5950be	-0.21222207
231	0xbe8bf11e	-0.27332395
232	0xbf08e7e5	-0.5347884
233	0xbe7d4ff6	-0.24737534
234	0xbeb79416	-0.35855168
235	0x3e5912b4	0.21198541
236	0xbd4b9f3b	-0.0497124
237	0x3de08169	0.10962183
238	0x3ce1eadf	0.027577816
239	0x3f0bd286	0.5461811
240	0x3de7b923	0.11314609
241	0xbf464e1c	-0.77462935
242	0xbe06cc9a	-0.13163987
243	0xbf4f1152	-0.80885804
244	0xbe38db52	-0.18052414
245	0xbf821f7e	-1.0165861
246	0x3cc2dffd	0.023788447
247	0xbed21bae	-0.41036743
248	0x3e3bc715	0.18337663
249	0x3ec22463	0.37918386
250	0xbdbec262	-0.09314419
251	0xbebc6f5b	-0.36803707
252	0xbf1396c7	-0.5765194
253	0xbf1a7f30	-0.6035032
254	0xbe2ad472	-0.16682604
255	0x3d94eb14	0.072714

functional_1/bidirectional_1_2/lstm_3_1/lstm_cell_1/Cast/ReadVariableOp/resource:0 f4 [24, 40]
0	0x3fe73537	1.8063115
1	0xbf0c493a	-0.54799235
2	0xbf04cbe4	-0.5187361
3	0xbef8b773	-0.4857746
4	0xbec9d6a8	-0.39421582
5	0x3f0ecd57	0.55782074
6	0x3f7af182	0.9802476
7	0x400996d2	2.1498303
8	0xbe09d663	-0.13460688
9	0x3f22d803	0.6361086
10	0x3e2655aa	0.16243616
11	0x3f80f79e	1.0075567
12	0xbf828abd	-1.019859
13	0x3eb2af27	0.34899256
14	0x3e0a7f86	0.13525209
15	0x402f229a	2.736487
16	0x3eb69a53	0.35664615
17	0x3f078074	0.5293038
18	0xbef74976	-0.48298234
19	0x3f9dbb07	1.2322701
20	0x3f0b4b3d	0.5441168
21	0xbea17c3f	-0.31540105
22	0xbd40c18d	-0.047059584
23	0xbe760f1e	-0.24029204
24	0x3f450a1a	0.7696854
25	0x3ddcda0d	0.107837774
26	0xbd3e3e6f	-0.04644626
27	0x3f391d76	0.7231058
28	0x3e42d5af	0.19026826
29	0xbd362e21	-0.044477586
30	0x3dcb7b2f	0.09935605
31	0x3eb88114	0.3603598
32	0x3e48411f	0.19556092
33	0x3e4851aa	0.19562402
34	0xbd94c434	-0.07263985
35	0xbe87722f	-0.26454303
36	0x3e579e15	0.21056397
37	0x3be91fcc	0.007114386
38	0xbf82d282	-1.0220492
39	0x3ef56270	0.47926664
40	0xbefc127d	-0.49232855
41	0xbf56cb0a	-0.83903563
42	0x3e897a37	0.26851055
43	0xc01e24ac	-2.4709883
44	0x3f2f651a	0.68513644
45	0x3f16d782	0.5892259
46	0x3e76a4b0	0.24086261
47	0xbf9527e5	-1.16528
48	0xbe993dc6	-0.29929942
49	0xbf73c352	-0.9521991
50	0x3e628819	0.2212223
51	0x3fb48552	1.4103186
52	0x3fabbe54	1.3417459
53	0x3dd1fa62	0.10252835
54	0xbf257410	-0.6463022
55	0xbe8ec499	-0.27884367
56	0xbcce7faa	-0.02520736
57	0x3f6bbccf	0.92084974
58	0x3f99717b	1.1987756
59	0xbec4ab56	-0.3841197
60	0x3ecbbfc9	0.39794758
61	0x3e6daf80	0.23211479
62	0xbe866a4f	-0.26252982
63	0x3e763d46	0.24046811
64	0xbe5ba760	-0.21450567
65	0xbf5de830	-0.86682415
66	0xbf223042	-0.63354886
67	0xbd7a639a	-0.061130144
68	0xbf1a2aa0	-0.6022129
69	0xbea5ff70	-0.32421446
70	0xbdd0ab4b	-0.101889215
71	0x3c2f9615	0.010716935
72	0x3ec72c67	0.38901064
73	0x3d9c781a	0.07640095
74	0xbed565fd	-0.41679373
75	0xbc5b92f6	-0.013401737
76	0xbe5ddc9e	-0.2166619
77	0xbdd54d61	-0.104151495
78	0x3eb31d5d	0.3498334
79	0x3d82b7a7	0.06382685
80	0x3ca00895	0.019535342
81	0xbf8b6887	-1.0891274
82	0x3f8df26f	1.108961
83	0x3f06956c	0.5257175
84	0xbf6480e3	-0.89259166
85	0xbff502ff	-1.9141539
86	0xbf476811	-0.7789317
87	0xbf33e6aa	-0.7027384
88	0xbfde752b	-1.7379507
89	0x3f063760	0.52428246
90	0xbf84a61d	-1.0363194
91	0x3fa38175	1.2773882
92	0x3ffc2791	1.9699575
93	0x3ec314df	0.3810186
94	0x3e4f8900	0.20267105
95	0xbe8ab97b	-0.27094635
96	0x3e27ee29	0.16399445
97	0x3facfc84	1.3514562
98	0x3e4b6113	0.1986125
99	0x3e12663d	0.14296813
100	0x3df93232	0.12167777
101	0xbe9cac0a	-0.30600005
102	0xbe07edc2	-0.13274291
103	0xbe4b1d86	-0.19835481
104	0x3e99c2c8	0.3003142
105	0xbeef1378	-0.4669454
106	0x3e9f5dc7	0.31126234
107	0x3fbd3da0	1.4784431
108	0x3ef3ec3b	0.47641167
109	0x3f4060dc	0.75147796
110	0x3ea40ae2	0.32039553
111	0x3f0869f7	0.5328669
112	0xbfa7bd37	-1.3104619
113	0x3e331d43	0.17491631
114	0x3f668365	0.9004424
115	0xbdb4a19e	-0.088198885
116	0xbd2738bb	-0.040825587
117	0xbe9f3df5	-0.31101957
118	0xbe961f03	-0.29320535
119	0x3c09ff46	0.008422678
120	0xbf416830	-0.755496
121	0xbfe6e8b5	-1.8039767
122	0x3e9447b0	0.28960943
123	0xbf7381bf	-0.9511985
124	0x3dd99d55	0.10625712
125	0xbfd8c444	-1.6934896
126	0xbdba445e	-0.09095071
127	0xbf934b0b	-1.1507276
128	0x3efea174	0.49732554
129	0xc01f48ab	-2.4888103
130	0xbf89feb9	-1.078086
131	0xc0210442	-2.5158849
132	0x3d0d780f	0.034538325
133	0xbf4b5a37	-0.7943453
134	0x3ffb3b17	1.9627408
135	0x3fedebc4	1.8587575
136	0xbf7baeef	-0.983138
137	0x3f876b76	1.057967
138	0x3fd099ea	1.6296971
139	0x3ff40fbf	1.9067305
140	0x3fa2c329	1.2715808
141	0x3f01b60d	0.5066841
142	0xbfb34d5e	-1.4007986
143	0xbfbac262	-1.4590571
144	0x3f5919fe	0.84805286
145	0xbf18cf13	-0.5969097
146	0xbf587081	-0.8454667
147	0xbf852a83	-1.0403599
148	0x3dadcd9d	0.08486483
149	0xbf2f355a	-0.68440783
150	0x3ea268c0	0.31720543
151	0x3ed73605	0.420334
152	0x3f548707	0.83018535
153	0xbe76e36f	-0.24110197
154	0x3f8a2b66	1.0794494
155	0x3e7084a7	0.23488103
156	0x3db33cac	0.087518066
157	0x3f4090af	0.7522077
158	0xbde8c508	-0.11365706
159	0x3f25d301	0.6477509
160	0x3fc7f4f3	1.5621628
161	0xbeeb9b3a	-0.46016866
162	0xbee2f55e	-0.44327825
163	0xbe670da1	-0.22563793
164	0x3e922b75	0.2854878
165	0xbdc83175	-0.09775058
166	0x3e42b57f	0.19014548
167	0x3f75c46d	0.96002847
168	0x3f610399	0.87896115
169	0xbf2719ea	-0.65273917
170	0x3efd8a36	0.4951951
171	0x3e51bde4	0.20482594
172	0xbe90b5e9	-0.28263786
173	0xbd553792	-0.05205495
174	0x3fddfe84	1.7343297
175	0x3f26753e	0.6502265
176	0xbf15b415	-0.5847791
177	0x3f312906	0.6920322
178	0x3e53ea7f	0.20694922
179	0x3ef4050b	0.47660097
180	0x3e85e686	0.26152438
181	0x3f0a1e3e	0.53952396
182	0xbeac425d	-0.3364438
183	0x3e1cbbcc	0.15306014
184	0x3f1e132d	0.6174801
185	0xbf385171	-0.7199927
186	0xbd396bd8	-0.045268863
187	0x3e9c91e5	0.3058006
188	0x3e92718b	0.2860225
189	0x3e5c5755	0.2151769
190	0x3f042c76	0.5163034
191	0x3e884640	0.26616096
192	0x3f0eb186	0.5573963
193	0x3d945511	0.07242788
194	0x3d4e3130	0.050339878
195	0x3cbb3605	0.022852907
196	0x3d947e88	0.072506964
197	0xbe79a7a4	-0.24380356
198	0x3ea0a6a3	0.31377134
199	0x3eb9435b	0.361842
200	0xbeefa9b9	-0.46809176
201	0x3ea4a4da	0.32157022
202	0x3de5ccb0	0.11220682
203	0xbd2d352e	-0.042287044
204	0xbe764ba1	-0.24052288
205	0xbfd54a85	-1.6663367
206	0xbf843d0e	-1.0331132
207	0xbe3da81a	-0.18521157
208	0xbeeaf78f	-0.45891997
209	0x3eefca5c	0.46834075
210	0xbf6e214f	-0.93019575
211	0x3ebfde8c	0.37474477
212	0xbf4026d8	-0.7505927
213	0x3f447290	0.7673731
214	0xbfe6fdae	-1.8046167
215	0x3ea3432e	0.31887192
216	0xbea515aa	-0.3224309
217	0x3f28a3b3	0.65874785
218	0xbfa8b0ed	-1.3178993
219	0xbf49c3a9	-0.7881418
220	0xbf308e00	-0.68966675
221	0xbe666ebb	-0.22503178
222	0x3dd3600c	0.10321054
223	0x3f053903	0.5204012
224	0xbeb8f2ac	-0.36122644
225	0x3f751e4f	0.9574937
226	0x3f353564	0.7078459
227	0x3e9be1cd	0.3044571
228	0xbe8cece8	-0.27524495
229	0x3ef67a66	0.48140258
230	0xbedbd39b	-0.4293488
231	0xbe8c3a87	-0.27388403
232	0xbf4a7b69	-0.7909456
233	0xbdb20911	-0.086931355
234	0x3f7ccf7e	0.9875411
235	0xbf27871a	-0.65440524
236	0x3e86c10e	0.26319164
237	0x3e2ebc92	0.17064121
238	0x3c17f582	0.009274842
239	0x3cbff96c	0.023434363
240	0xbe49993b	-0.19687359
241	0xbf8b4230	-1.0879574
242	0xbfc2563a	-1.5182564
243	0x3f36d8b7	0.7142443
244	0x3e4c0168	0.19922411
245	0xbfb0a482	-1.3800204
246	0xbf7f154f	-0.9964189
247	0x3f9ea4d2	1.2394049
248	0x3f0bf427	0.5466942
249	0x3e56b595	0.20967706
250	0xbd1a9e75	-0.037748773
251	0x3e5429a1	0.20719005
252	0xbea99362	-0.33120257
253	0x3fd2a2b3	1.6455902
254	0x3e670913	0.22562055
255	0xbe8e5e3c	-0.2780627

functional_1/bidirectional_1_2/forward_lstm_2_1/lstm_cell_1/add_1/ReadVariableOp/resource:0 f4 [40]
0	0xbe119a33	-0.14218979
1	0x3f5cb005	0.86206084
2	0x3e7d8c90	0.24760652
3	0xbea43c5d	-0.32077304
4	0x3d3c5465	0.045978922
5	0x3eb80b09	0.3594592
6	0x3f18c0e2	0.59669316
7	0x3dfc52e5	0.123204984
8	0xbe058068	-0.13037264
9	0x3d12c7f3	0.035835218
10	0x3f9474d7	1.1598157
11	0x3fd34e48	1.6508265
12	0x3fae1377	1.359969
13	0x3f84a23c	1.036201
14	0x3f5022ab	0.813029
15	0x3f79ce8e	0.975808
16	0x3fd2ffb4	1.6484284
17	0x3f8d85d6	1.1056468
18	0x3fb0221e	1.3760412
19	0x3fb943d0	1.447382
20	0x3cdc5273	0.026894784
21	0xbcd70ce2	-0.02625126
22	0x3e8a5ca2	0.27023798
23	0x3cdd9a25	0.02705104
24	0x3d7909e3	0.060800444
25	0x3d8d929c	0.06912729
26	0x3f1a374d	0.6024063
27	0xbf14335f	-0.57890886
28	0x3d66fae5	0.056391615
29	0xbdd54f3d	-0.10415504
30	0xbe98441d	-0.29739466
31	0x3d739441	0.059467558
32	0x3d455166	0.04817333
33	0xbe2d94e1	-0.16951324
34	0xbdcaa55d	-0.09894822
35	0x3f388649	0.720799
36	0x3de6eb1b	0.112753116
37	0xbc9f7cc8	-0.01946868
38	0x3cc6f41c	0.024286322
39	0x3d8be1ee	0.06830202

functional_1/bidirectional_1_2/forward_lstm_2_1/lstm_cell_1/Cast_1/ReadVariableOp/resource:0 f4 [10, 40]
0	0x3f2db55a	0.67854846
1	0x4033badb	2.8082798
2	0xbfabc917	-1.3420743
3	0x3d3f757b	0.046742897
4	0xbfe71043	-1.8051838
5	0xbf679706	-0.9046482
6	0x3f7f07b5	0.99621135
7	0xbdb4ed68	-0.08834344
8	0xbefabe9c	-0.48973548
9	0xbf8a4a10	-1.0803852
10	0x3f078b7b	0.52947205
11	0x3f1544ff	0.58308405
12	0xbd87d912	-0.066332
13	0x3eb0645a	0.34451562
14	0xbf8e19d0	-1.1101627
15	0xc00307a7	-2.047342
16	0x3e9578b7	0.2919366
17	0x3f821b07	1.0164498
18	0xbe0d5672	-0.13802508
19	0xbf7c28d2	-0.98499787
20	0xbeace423	-0.33767805
21	0xbeb218a2	-0.34784418
22	0xbea8fae4	-0.33003914
23	0xbeddcf42	-0.43322188
24	0xbe6c2416	-0.2306064
25	0x3f130d28	0.5744195
26	0xbec67723	-0.3876277
27	0xbf7a8afc	-0.97868323
28	0xbe98dd4e	-0.29856342
29	0x3f25812a	0.64650214
30	0xbe0acc1b	-0.13554423
31	0xbe0c9c0d	-0.13731404
32	0xbd1bb042	-0.03800989
33	0x3f0148bf	0.50501627
34	0xbf83595b	-1.0261644
35	0x3ed108f0	0.4082713
36	0x3f274451	0.6533862
37	0xbe270156	-0.16309103
38	0x3e1eb387	0.15498172
39	0x3e726048	0.23669541
40	0xbf595385	-0.84893066
41	0x3de8d89b	0.11369439
42	0xbfb0ebbd	-1.3821942
43	0x3d1c0cc6	0.03809812
44	0xbe4cf78a	-0.20016304
45	0xbe839a90	-0.2570386
46	0xbf812f7f	-1.009262
47	0x3e5817f2	0.21102884
48	0xbe8edb5c	-0.27901733
49	0x3e9c96f5	0.3058392
50	0xbf4ebf4e	-0.8076066
51	0xbf555cf3	-0.83344954
52	0x3ef7020c	0.4824375
53	0x3e109586	0.14119539
54	0x3e27c956	0.16385397
55	0xbf2b9a53	-0.67032355
56	0x3e17516d	0.14777155
57	0x3eb49130	0.3526702
58	0xbe92d6a2	-0.28679377
59	0x3f65979c	0.8968446
60	0x3f25491d	0.64564687
61	0x3fb6e5a3	1.428883
62	0xbe96780d	-0.29388466
63	0xbdc26dc5	-0.09493593
64	0xbd37d8f2	-0.04488463
65	0xbcf21a0b	-0.029553434
66	0x3ed6b78c	0.4193691
67	0xbf0525b5	-0.5201066
68	0x3d50c5f6	0.05097004
69	0x3eff2d95	0.49839464
70	0x3eb511eb	0.35365233
71	0x3e213dec	0.15746278
72	0x3d9ceee7	0.076627545
73	0x3e1079a9	0.1410891
74	0x3ece7be0	0.40328884
75	0xbf098712	-0.53721726
76	0x3e4ae91b	0.19815485
77	0x3ed45299	0.41469267
78	0x3e54f249	0.2079555
79	0x3e96fd6b	0.29490218
80	0xbe91a4b1	-0.28445962
81	0xbebbb21c	-0.36659324
82	0x3fada00c	1.3564467
83	0xbf05e1c4	-0.52297616
84	0x3e8f18e4	0.27948678
85	0xbf8b30d6	-1.0874279
86	0x401907aa	2.3910928
87	0x3edd7c4f	0.43258902
88	0xbed27edc	-0.4111241
89	0x3f1dad64	0.615927
90	0xbd54b6f2	-0.051932283
91	0x3dff1e1b	0.12456914
92	0x3f83ede2	1.0306971
93	0xbe7e3b69	-0.2482735
94	0xbc36c290	-0.011154786
95	0xbe6b2f8f	-0.22967361
96	0x3f27c409	0.655335
97	0xbe3e2334	-0.18568116
98	0xbed75a23	-0.42060956
99	0x3db440b7	0.08801406
100	0x3dff7a8e	0.12474547
101	0xbefd2b6f	-0.494472
102	0x3ea5cf2d	0.32384625
103	0xbf09a3c2	-0.537655
104	0xbe330250	-0.17481351
105	0x3e278068	0.16357577
106	0x3e925604	0.2858125
107	0x3ce25950	0.027630478
108	0xbe7df32d	-0.24799795
109	0xbe18cf92	-0.14922932
110	0x3f17f455	0.59357196
111	0xbe336047	-0.17517196
112	0x3e42b459	0.1901411
113	0xbc6df97e	-0.014524816
114	0x3ee4e019	0.44702223
115	0xbf755f3e	-0.95848453
116	0x3e83e902	0.25763708
117	0xbc5ba4fe	-0.013406036
118	0xbec4d3a1	-0.3844271
119	0xbe0467b7	-0.12930189
120	0x3f9a636a	1.2061589
121	0xbedcc618	-0.43119884
122	0xbed1213b	-0.40845665
123	0x3f42c874	0.7608712
124	0x3e08734e	0.13325235
125	0xbf83c2f7	-1.0293874
126	0x3ed2617d	0.41090003
127	0xbf723499	-0.9461151
128	0xbd8ba7d2	-0.068191186
129	0x3ff8ad13	1.9427818
130	0xbfaae453	-1.3350929
131	0x3e3cf4dd	0.18452783
132	0xbf1d52c5	-0.6145442
133	0x3f77d70c	0.9681251
134	0xbf394a8e	-0.72379386
135	0x3f9eeef0	1.2416668
136	0xbba28355	-0.0049595037
137	0x3e0db98e	0.13840315
138	0x3f5a3a61	0.8524533
139	0x3f2ac8ce	0.66712654
140	0xbe55abdd	-0.20866342
141	0xbf32d855	-0.69861346
142	0x3f525837	0.82165855
143	0xbe24da70	-0.16098952
144	0x3eb1e154	0.34742224
145	0xbecda95d	-0.40168276
146	0xbf5fa988	-0.8736806
147	0xbf7d02e3	-0.9883253
148	0xbf253e6c	-0.64548373
149	0xbf9951c7	-1.1978081
150	0xbf307940	-0.6893501
151	0x3eca771c	0.39543998
152	0x3e2ff1bc	0.17182058
153	0x3ee94f9a	0.45568544
154	0x3f453b8f	0.77044004
155	0xbfe6d05f	-1.803234
156	0x3f143c12	0.5790416
157	0x3ec1a962	0.3782454
158	0x3f6dbac5	0.9286311
159	0x3e98e078	0.29858756
160	0xbea3c6c9	-0.319876
161	0x3fa2ebc3	1.2728199
162	0x3f92cca9	1.1468707
163	0x3fa01ff5	1.2509753
164	0xbf185727	-0.59507984
165	0x3dac6bac	0.08418974
166	0x3fb0a970	1.3801708
167	0xbf1d67f5	-0.6148675
168	0x3c4d4df7	0.012530795
169	0xbf639b0f	-0.88908476
170	0xbf9cb8dd	-1.2243916
171	0x3dc1d480	0.09464359
172	0xbe9f0cc2	-0.3106442
173	0x3f2aa8a6	0.6666359
174	0xbf1883db	-0.59576195
175	0xbfb55970	-1.4167919
176	0xbf1db68b	-0.61606663
177	0xbe21f6fd	-0.15816875
178	0xbf08ea8d	-0.53482896
179	0xbfce1562	-1.6100276
180	0xbe259e2d	-0.1617362
181	0x3f50a7e3	0.81506175
182	0xbf307201	-0.68923956
183	0xbf9f3f23	-1.2441143
184	0xbda31b00	-0.07964134
185	0xbf359e61	-0.7094479
186	0xbdb4851e	-0.088144526
187	0xbee4ac34	-0.4466263
188	0xbd3a3c5d	-0.045467723
189	0x3eded73c	0.43523586
190	0xbfc4cfdb	-1.5375932
191	0x3ec8b2bd	0.39198866
192	0x3d53545e	0.05159413
193	0xbe4e4520	-0.20143557
194	0x3fb4ba63	1.4119381
195	0x3f479a97	0.7797026
196	0xbe6f58e1	-0.23373748
197	0x3e666967	0.22501145
198	0x3f6ffbf3	0.9374382
199	0x3e50308f	0.20331024
200	0xbfc2c86b	-1.5217413
201	0xbf6c634b	-0.9233901
202	0x3f92236e	1.1417062
203	0xbf1209ac	-0.5704601
204	0xbf03e258	-0.5151725
205	0xbf542dba	-0.82882273
206	0x3f37e800	0.7183838
207	0x3ef75f58	0.4831493
208	0x3f5efd06	0.87104833
209	0x3e2ab18d	0.16669293
210	0xbe64a76b	-0.2232949
211	0xbec5d189	-0.38636425
212	0x3daad694	0.08341709
213	0x3e60fc5a	0.21971264
214	0xbfa8385d	-1.3142201
215	0xbf28d2c7	-0.6594662
216	0x3eadf798	0.33977962
217	0x3f0d2bec	0.55145144
218	0xbf1f8e0e	-0.62326133
219	0x3e5421d5	0.20716031
220	0x3f55fc36	0.8358797
221	0x3f406e69	0.7516847
222	0x3ef4a58c	0.47782552
223	0xbf7edec4	-0.99558663
224	0x3f17301a	0.5905777
225	0x3f1e52b5	0.6184495
226	0x3f531b96	0.8246397
227	0x3ecc87e9	0.3994744
228	0xbf4201e2	-0.7578412
229	0x3e0032a1	0.12519313
230	0xbfc208bd	-1.5158917
231	0x3f3e05a3	0.7422735
232	0x3efdda2d	0.49580517
233	0xbe97ee9a	-0.29674226
234	0xbff63905	-1.9236151
235	0xbec9d65a	-0.3942135
236	0xbe686e36	-0.22698292
237	0xbeba90ee	-0.36438698
238	0x3f09bf20	0.5380726
239	0xbee917a9	-0.45525864
240	0xbea47463	-0.32120046
241	0x3f4fd3b6	0.8118242
242	0x3f004870	0.5011053
243	0xbf84e9e1	-1.0383874
244	0xbe9942fa	-0.29933912
245	0xbf7a0ce6	-0.9767593
246	0x4019144f	2.3918645
247	0x3f33c45e	0.7022151
248	0xbf0a9117	-0.5412764
249	0x3e8d0982	0.27546316
250	0x3ee19ac1	0.4406338
251	0x3f386d79	0.7204204
252	0x3ec2f82e	0.3807997
253	0x3d2f27ff	0.042762753
254	0xbefd001e	-0.49414152
255	0xbd86a36d	-0.0657414

functional_1/bidirectional_1_2/forward_lstm_2_1/lstm_cell_1/Cast/ReadVariableOp/resource:0 f4 [24, 40]
0	0xbf092daf	-0.5358533
1	0xbeea9f8b	-0.45824847
2	0x3f6141af	0.8799085
3	0xbc0f17ec	-0.008733731
4	0x4006828a	2.1017175
5	0xbeffee94	-0.49986708
6	0x3d034be4	0.032054797
7	0xbec6b6ab	-0.3881124
8	0x3ec3ca72	0.3824039
9	0xbf8c1206	-1.0943
10	0xbf8ee696	-1.1164119
11	0x3fb43da4	1.4081311
12	0x3dbf7d17	0.09350031
13	0x3ef57537	0.4794099
14	0xbf3876c9	-0.7205625
15	0x3e02d93d	0.12778182
16	0xc023ea64	-2.561181
17	0xbcf0ae6f	-0.029380051
18	0xc00cda57	-2.2008264
19	0xbfbed141	-1.4907609
20	0x3e20c761	0.15701057
21	0xbf787b7a	-0.9706341
22	0xbfaec357	-1.3653363
23	0xbdda4e7f	-0.10659503
24	0x3f4c139d	0.7971743
25	0xbed8c773	-0.42339668
26	0xbebd8820	-0.37017918
27	0xbedef58c	-0.43546712
28	0x3e085591	0.13313891
29	0xbda3d4fb	-0.07999607
30	0x3f7c920e	0.9866036
31	0xbe0acd41	-0.1355486
32	0x3ca7c40f	0.02047923
33	0x3e12ce19	0.14336433
34	0x3f12b796	0.5731138
35	0xbdc2acc9	-0.095056124
36	0x39d45094	0.00040495826
37	0x37848040	1.5795347e-05
38	0x3f5397f4	0.8265374
39	0x3e984dd0	0.29746866
40	0xbf392b47	-0.7233166
41	0x3f881abe	1.0633161
42	0xbf84b6a2	-1.0368235
43	0xbf0ed939	-0.55800205
44	0xbf90e197	-1.1318845
45	0x3f612f68	0.8796296
46	0x3f2b4814	0.6690686
47	0x3e9706d3	0.29497394
48	0x3f12544e	0.5715989
49	0x3e869e2c	0.2629255
50	0x3db5decf	0.08880388
51	0x3fbaecf7	1.4603566
52	0x3ebe3e7f	0.37157056
53	0xbebdc9ba	-0.37067968
54	0x3f114007	0.5673832
55	0xbddac3b0	-0.10681856
56	0xbeae77d8	-0.3407581
57	0xbf2284a4	-0.63483644
58	0xbf375289	-0.71610314
59	0x3f4576f0	0.7713461
60	0xbe96bf29	-0.2944272
61	0xbd41202d	-0.047149826
62	0x3f3fa5ef	0.7486257
63	0xbecda4c1	-0.4016476
64	0xbed08374	-0.4072529
65	0xbd924a90	-0.07143128
66	0xbea9c1a9	-0.33155563
67	0x3d28cdaf	0.04121178
68	0x3f550946	0.83217275
69	0xbf0fa0d7	-0.561048
70	0xbe8491ce	-0.2589249
71	0x3e09fd92	0.13475636
72	0x3e912ecd	0.2835602
73	0xbdfc8b93	-0.12331309
74	0xbf560990	-0.8360834
75	0xbf639ecf	-0.889142
76	0xbf1b058f	-0.60555357
77	0x3cd3327a	0.025780905
78	0x3d314e59	0.04328761
79	0x3d11ebb6	0.035625182
80	0xbeed6555	-0.46366373
81	0x3f98bb3d	1.193214
82	0xbface556	-1.3507488
83	0x3f62fdbc	0.8866842
84	0x3ffcc424	1.9747357
85	0x3d429801	0.047508243
86	0xc0a58ce0	-5.1734467
87	0xbe943559	-0.2894695
88	0x3fc8cd02	1.5687563
89	0x3f1002c2	0.5625421
90	0xbf71d840	-0.94470596
91	0x3f833c60	1.02528
92	0xbf443541	-0.7664376
93	0xbef3300e	-0.474976
94	0xbf6e1cf1	-0.9301291
95	0x3f5b493f	0.8565864
96	0x3dfaa9ee	0.12239443
97	0xbdc15871	-0.09440697
98	0xbd59ddf7	-0.053190198
99	0xbfbf84eb	-1.4962438
100	0xbd63561a	-0.055502035
101	0x3ef4a521	0.47782233
102	0xbf887b55	-1.0662638
103	0xbd8e674a	-0.069532946
104	0x3e4cefef	0.20013402
105	0xbed486f6	-0.41509217
106	0xbf451b8a	-0.76995146
107	0x3f82cd80	1.0218964
108	0xbe11253e	-0.14174363
109	0x3edc07fd	0.42974845
110	0x3f6fb5d7	0.9363684
111	0xbb9e92f8	-0.0048392974
112	0xbe63897d	-0.22220416
113	0xbe3490b9	-0.17633332
114	0xbf214118	-0.6298995
115	0x3f8048b8	1.0022192
116	0xbd392030	-0.045196712
117	0x3ec10b2d	0.3770384
118	0x3e3812a1	0.17975856
119	0x3e4a1fa4	0.19738632
120	0x3ee0a8d7	0.43878815
121	0x3ff1f9a1	1.8904306
122	0x3f3b8f36	0.732654
123	0xbf35b57e	-0.7098006
124	0x3debbf77	0.115111284
125	0x3e3e6b1c	0.18595546
126	0xc0894f2c	-4.2909145
127	0xbfbd63e6	-1.4796112
128	0xbe122d6e	-0.14275143
129	0xc00d913f	-2.21199
130	0xbf16483f	-0.5870399
131	0xbc351a17	-0.011053584
132	0xbfc55316	-1.5415981
133	0xbfb25866	-1.3933227
134	0xbfc255d4	-1.5182443
135	0x3e053569	0.13008656
136	0xc0028667	-2.0394533
137	0xbf0fd4a4	-0.5618384
138	0x3dcca6f1	0.09992779
139	0xbfc23b07	-1.5174264
140	0x3c1dff29	0.009643354
141	0x3c923f4b	0.017852446
142	0xba8c8a86	-0.0010722436
143	0xbe1c91e2	-0.15290025
144	0x3ebeebda	0.37289315
145	0xbdbf90a5	-0.09353761
146	0xbf435f70	-0.763175
147	0xbf2c8f8a	-0.67406523
148	0x3d9c806a	0.076416805
149	0xbdebdc84	-0.115166694
150	0x3ec64e98	0.38731837
151	0xbf8f14d9	-1.1178237
152	0xbfa21424	-1.2662396
153	0x3f33b283	0.7019426
154	0x3e99ede0	0.30064297
155	0x3f1f37d8	0.62194586
156	0x3f0fcc0e	0.5617074
157	0x3f118153	0.5683796
158	0xbf3c5a21	-0.73575026
159	0xbe8570d0	-0.26062632
160	0xc010bd3f	-2.2615507
161	0x3f069e47	0.5258526
162	0x3f1adc53	0.6049244
163	0xbea3801b	-0.31933674
164	0x3de00e9b	0.10940286
165	0xbe61fa73	-0.22068195
166	0x3f01939c	0.5061586
167	0x3f12874a	0.57237685
168	0x3e633df5	0.22191603
169	0x3f3f11c0	0.7463646
170	0x3d65e075	0.056122262
171	0xbf6e30b0	-0.9304304
172	0x3ef79d73	0.48362312
173	0xbe86e0d0	-0.26343393
174	0x3f1587de	0.5841044
175	0x3f608b64	0.87712693
176	0xbee035fa	-0.4379118
177	0x3f50d408	0.81573534
178	0x3e33f4e1	0.17573883
179	0xbeddc1d4	-0.43311942
180	0xbe063068	-0.13104403
181	0xbf605037	-0.876224
182	0x3f35d04e	0.7102097
183	0xbeaadf68	-0.3337357
184	0xbd65cf80	-0.05610609
185	0xbdcd2e1f	-0.100185625
186	0x3df7d2f6	0.121007845
187	0xbd4b261e	-0.0495969
188	0x3d96ea13	0.07368865
189	0xbecf7d72	-0.40525395
190	0x3f44b51d	0.76838857
191	0xbe18ac75	-0.14909537
192	0xbf04cb2a	-0.51872504
193	0x3e7b3ee1	0.24535705
194	0xbc27caba	-0.010241205
195	0x40012745	2.0180218
196	0x3e64f538	0.22359169
197	0xbf1992d2	-0.59989655
198	0x3e5ac3f2	0.2136381
199	0xbeda4d4a	-0.42637092
200	0xbe2ffeba	-0.17187014
201	0x401cf7a6	2.4526153
202	0xbfa69170	-1.3013134
203	0xbea755ca	-0.3268264
204	0x3e9f29e9	0.31086662
205	0xbec978b9	-0.39349917
206	0x3a309e24	0.0006737432
207	0xbf1130af	-0.5671491
208	0xbe169ba7	-0.14707814
209	0x3efd86eb	0.49516997
210	0xbedfd1ae	-0.4371466
211	0xbe185d87	-0.14879428
212	0xbf04b765	-0.5184234
213	0xbca31777	-0.01990865
214	0xbdf6158e	-0.1201583
215	0xbf803d3c	-1.0018687
216	0xbefd2aed	-0.49446812
217	0x3efbbbfd	0.4916686
218	0x3d6196b9	0.05507538
219	0x3cbf9ba6	0.023389649
220	0xbdcf8541	-0.10132838
221	0x3f8af071	1.0854627
222	0xbe8ca829	-0.27472046
223	0x3e355920	0.1770978
224	0x3e903e81	0.28172687
225	0xbe0f6f9e	-0.14007422
226	0x3cfbb44c	0.03072562
227	0x3ea48bd7	0.3213794
228	0x3ed2e254	0.411883
229	0xbef737c8	-0.48284745
230	0x3ef91df8	0.48655677
231	0x3ec8c6a9	0.39214066
232	0xbe310e11	-0.17290522
233	0xbed019de	-0.40644735
234	0x3e580465	0.21095426
235	0x400021d3	2.0020645
236	0xbd24f293	-0.0402704
237	0x3ed04a75	0.40681806
238	0x3d08fd37	0.03344461
239	0xbc596199	-0.013267898
240	0xbfd520c8	-1.6650629
241	0xbeacfde4	-0.33787453
242	0x3f855de7	1.0419282
243	0x3d392a44	0.045206323
244	0x3f19c614	0.6006787
245	0xbee20fca	-0.4415267
246	0xbf025849	-0.5091596
247	0xbf8b28dc	-1.0871844
248	0xbf5b2b9d	-0.85613424
249	0x4030664c	2.7562437
250	0x3f5c9e4b	0.86179036
251	0xbf704950	-0.93861866
252	0x3e62d50f	0.22151588
253	0xbdad4a21	-0.084614046
254	0x3faa67b4	1.3312898
255	0x3e039ac3	0.12852006

functional_1/bidirectional_1/lstm_1_1/lstm_cell_1/add_1/ReadVariableOp/resource:0 f4 [48]
0	0x3d9d03bf	0.0766673
1	0xbe8c961a	-0.27458268
2	0xbeca89db	-0.395583
3	0xbe537e1f	-0.2065358
4	0x3d935003	0.071929954
5	0x3cffe2c0	0.031236053
6	0xbe2afcb6	-0.16697964
7	0x3e02ead9	0.127849
8	0x3e1e11c1	0.1543646
9	0xbef3b035	-0.47595373
10	0x3e97ade6	0.2962486
11	0x3e1be6bb	0.15224735
12	0x3f5f4b2c	0.8722408
13	0x3f4fb792	0.8113948
14	0x3f6e17ed	0.9300526
15	0x3fae9845	1.3640219
16	0x3f8e915e	1.1138113
17	0x3fa5b530	1.2945919
18	0x3f8d016c	1.1016059
19	0x3f8a460f	1.080263
20	0x3f8c3f62	1.0956843
21	0x3f769c16	0.9633192
22	0x3f90b9a7	1.1306657
23	0x3f51c86b	0.8194644
24	0xbc80ae38	-0.015708074
25	0x3d4b830d	0.049685527
26	0xbdd7d122	-0.10537936
27	0xbbe98541	-0.007126481
28	0x3e896534	0.26835024
29	0xbd7b9862	-0.06142462
30	0x3cd906da	0.026492525
31	0xbdad37cc	-0.08457908
32	0xbde939a6	-0.11387949
33	0xbba500d4	-0.005035499
34	0xbca6e1c5	-0.020371327
35	0xbdd77d00	-0.10521889
36	0x3ecfea7e	0.4060859
37	0xbe675506	-0.22591028
38	0x3d78b0be	0.06071543
39	0x3d6e02a9	0.058108006
40	0xbd8f9521	-0.07010866
41	0x3e5a763f	0.2133417
42	0x3df87fe6	0.1213377
43	0xbdf724e2	-0.12067582
44	0x3e3ad700	0.18246078
45	0xbdf685fc	-0.12037274
46	0x3df1056f	0.117686145
47	0x3ddf2e2e	0.1089748
